bomberman/teams/banan.pt (torch, 509447 bytes, 11 tensors)

weight f4 [64, 908]
00000000: 3dfa 373e 189e 8bbd 2340 f73e ea5b a8bd
00000010: 00c9 f03d 904a 90bd 94c2 c73e e06e f5bb
00000020: 9bef 6cbe 5439 53bb a832 f8bc 9f67 813d
00000030: 2eb3 113e 3b62 323e a2e5 673e 09c1 8d3e
00000040: 2eb4 c9bd 1814 37be edde 0cbe 107d 183d
00000050: a85c 0c3f fea8 b53e 737d 943e da4c 063f
00000060: e117 863d ef7d 183e 4438 123e bd5d 3b3e
00000070: 8d2a 153f 1671 afbb 0b02 853d 8be4 5d3d
00000080: 4532 ce3d 1ef6 7a3e b5b1 41bc 8672 4c3e
00000090: 6fd8 0a3e 502c c43e 11d8 5a3e 2027 843d
000000a0: 03b1 0abf 8c3c bc3e 8d06 523d a192 a53e
000000b0: c3e9 163f 1cc9 4cbd c932 2abe f994 463d
000000c0: 11e3 e5bc 0008 c0be bb49 463d bf6b 3cbe
000000d0: 1649 2dbe 9997 23be f38e c83d 5f04 97bd
000000e0: 06b1 84bd 800e dabc 80ce a03e ad96 c83d
000000f0: e525 823d d215 72be ae46 3f3d d454 8dbd
00000100: 7da3 d8bd ea1e 843d 0961 ce3a 7bf5 00be
00000110: 4f33 a33d 226b 753e a34e f93c dcd0 13be
00000120: 8eee a93d 604c a53e b1fb 823a cfe6 f7bd
00000130: 775e c13e de03 5c3c bd33 e53d 8cf0 54be
00000140: 6628 f1bb b243 2fbd 4900 ef3d 17f9 65be
00000150: 9b7c a9be 04c8 37be 7f98 703e 16a8 e03e
00000160: 0079 14bf e5c1 9f3e f46a 23be 5d0e 523e
00000170: d223 eb3d 2a84 493d 8fe9 233e b3fe c0bc
00000180: 171a 8e3e b4fc 0c3f 58b7 5d3e 5c39 de3e
00000190: ffe1 a43d 57dc c23e 4281 643e 6914 d7bd
000001a0: a959 b0be 2dfa 9f3d 3cca 1d3f f836 463a
000001b0: 4353 963c 869f 26be 306d 063e ca4d 16be
000001c0: 3607 133e a99c b9be 41ba f23d 8906 3dbe
000001d0: c463 96be 7cd1 ca3c 2d3a 963d 927b 233e
000001e0: 9bc0 233e 06ff cabd fbc9 2a3d 8c43 8cbd
000001f0: 70eb 62bd 8296 debe 5b44 f1bd 394e 273e
00000200: a111 9a3d cd99 bf3d e31c 673d 4c60 003e
00000210: d6fd c7be 640d 2e3f 7f52 1b3b 7768 a83d
00000220: 9ad6 ddbc b6ce 9c3d f63e d4be 85ca 913e
00000230: fa2a 4abe d960 ab3d 47b9 f8bc 2cf7 a7bb
00000240: 3aba 0f3f 3c9b f63e b90f 1f3e 4df0 82bd
00000250: 299f 3fbe 0cd9 153f 2e17 e83e 35c9 ddbe
00000260: 2bfb 933e d515 f3be 8e6a aa3e aa51 b03e
00000270: c380 d43d fff1 a33d a112 7f3d 2d49 3d3e
00000280: 1761 813d b71d b0bd 4b63 47bd 5204 633d
00000290: 7b4a 9ebd 0914 03bf 16ad f83d e115 003e
000002a0: 598b 43bd cd19 36be dbb8 443d a51d e13c
000002b0: daec 353f bbae 40be 0150 8a3e 9d50 153e
000002c0: 7cd4 c1be 7f3f 663d ab91 e13e 674f 58be
000002d0: dd85 6c3e 7c26 e83d 8def 653c 236f 3abc
000002e0: 92fe cc3d ee7c cfbd d11d 4a3d ea26 653e
000002f0: 2b7c 07be ea10 c53d 6e66 283e 7a74 2bbe
00000300: 6594 833e 141a 5cbe 9729 343e 7d42 79bd
00000310: adde d93d 651a b2be 7d87 2b3e 676e c7bd
00000320: 9467 e53e c133 b83e dd62 833e d0dc 5fbe
00000330: c1f4 21bf fbd8 653e 3b65 b43e d130 ebbe
00000340: d52b 5f3f 7418 d03e 389b c93d 8ea3 32be
00000350: ca46 8fbc c611 81bd 6cdd 543e ebcb 05be
00000360: af15 babe 9fdb 83be c9e9 2e3e 32bf 9cbe
00000370: 498a 993e 40fe 4e3f b650 d03e 1e87 d13d
00000380: b5a5 483e fb01 92bd 7ca8 c13e 98db 283e
00000390: e63d 9c3e 9087 d9bb 73ba 8c3e 7ef2 1f3e
000003a0: 5065 163e 0f94 bf3b 04d9 09bd 6311 d2bd
000003b0: 529c 0abf 86ce a53e 0a81 fe3e 9a2f 7e3d
000003c0: f974 d4bc fce7 5dbe 10d7 053e 5a2f 633d
000003d0: 5237 2c3f f810 01be f376 483c 0272 513e
000003e0: ac42 a73d 96d7 ce3e d616 713d d84b ea3d
000003f0: 49e8 113e c92f 0ebf 5931 5f3e b3cc 2b3e
0.17966552 -0.06817263 0.4829112 -0.08220656 0.11757088 -0.07045472 0.3901564 -0.007490024
-0.23138277 -0.0032230215 -0.030297592 0.06318592 0.14228508 0.17420284 0.22646192 0.27686337
-0.0984882 -0.17878759 -0.13756914 0.037228644 0.5482888 0.35480493 0.2900196 0.52461016
0.06547523 0.1489179 0.14279276 0.18297477 0.5826805 -0.005354057 0.0649453 0.054173034
0.10068182 0.24507949 -0.011822154 0.19965562 0.13559125 0.38315058 0.21371485 0.06452775
-0.5417635 0.36764944 0.05127578 0.3233843 0.5895044 -0.04999648 -0.16620935 0.048481915
-0.028062375 -0.37506104 0.04841016 -0.18400477 -0.16922411 -0.15975799 0.097928904 -0.073738806
-0.06479077 -0.026618242 0.31407547 0.09794364 0.06354884 -0.23641136 0.046698265 -0.06900945
-0.10578058 0.06451209 0.0015745471 -0.12593643 0.07968771 0.23966649 0.030433005 -0.14435142
0.08297454 0.32284832 0.0009993223 -0.1210457 0.37767383 0.013428656 0.11191509 -0.20794886
-0.007359552 -0.04278917 0.11669976 -0.22458301 -0.3310288 -0.17947394 0.23495673 0.4387824
-0.5799713 0.31202617 -0.15958768 0.20513292 0.114814416 0.049198307 0.16007064 -0.02355895
0.2775428 0.55073094 0.21651971 0.43403137 0.08050918 0.3805873 0.22314933 -0.1050194
-0.34443405 0.07811389 0.6163671 0.00075612916 0.01835025 -0.16271791 0.13127589 -0.14678112
0.1435822 -0.36252335 0.11851931 -0.18459524 -0.2937299 0.024758093 0.07335315 0.15965107
0.15991442 -0.09911923 0.04169653 -0.06848821 -0.055400312 -0.43474203 -0.11780616 0.16338433
0.07522894 0.09355507 0.056424033 0.12536734 -0.3906085 0.6798918 0.0023700295 0.0822305
-0.027079869 0.076566145 -0.41454285 0.28474823 -0.19742957 0.083680816 -0.030361785 -0.0051259007
0.56143534 0.4816531 0.15533341 -0.0639349 -0.18713059 0.5853431 0.45330185 -0.4331757
0.28902563 -0.47477594 0.3328442 0.34437305 0.10376122 0.080051415 0.062273625 0.18484946
0.063173465 -0.08599418 -0.048678678 0.055424042 -0.0772905 -0.51202446 0.121423885 0.12508346
-0.047740314 -0.1778328 0.048027854 0.027479956 0.7106453 -0.18816654 0.27014163 0.14581533
-0.37857425 0.0562129 0.44056448 -0.2112404 0.2309794 0.11335465 0.014034164 -0.011379036
0.10009493 -0.1013125 0.04934484 0.22378126 -0.1323096 0.09622367 0.16445324 -0.16743651
0.25699154 -0.21494323 0.1759399 -0.060854424 0.10638175 -0.34785762 0.16750903 -0.097378545
0.44805586 0.35976985 0.25661364 -0.21861577 -0.6326409 0.22446053 0.35233483 -0.4593568
0.8717626 0.40643656 0.09844059 -0.17445204 -0.01748981 -0.06302218 0.2078759 -0.1306607
-0.36344668 -0.25753495 0.1708137 -0.3061462 0.29988316 0.80856705 0.40686578 0.1023085
0.19594462 -0.07129284 0.37823856 0.16490018 0.30515975 -0.0066384748 0.27486 0.15619847
0.14687085 0.0058465074 -0.033654228 -0.102572225 -0.54144776 0.32384127 0.49707824 0.062057115
-0.025934683 -0.21670526 0.13070321 0.05546508 0.6727191 -0.1260413 0.012235391 0.20453647
0.081670135 0.40398854 0.05885967 0.11440247 0.14248766 -0.55541664 0.21796168 0.16777305

bias f4 [64]
00000000: 63c2 89bc e653 a3bd 98e6 96bd 108c 6d3e
00000010: c292 693b 5c8d bfbd be39 90bd 71e7 a73d
00000020: 4958 a73c 7248 b8bd 414b fc3b 2437 2a3d
00000030: f0a1 11bd cdc6 303e 378a bcbd 6c9a 973d
00000040: 8ccc 493d e11e 603e f3fe be3d 5a39 383c
00000050: 3217 7f3c 34a9 263c 691b 443c 5b6c 29be
00000060: b28a 33bd 0933 d2bc c8e3 b43a 8804 923d
00000070: 971a d23c 00f3 c93c 616d 1d3e e94f f3bc
00000080: b39c d4bc d3b9 42bd 6fe0 04be fa34 693d
00000090: c617 213d c166 1a3e b77a c33d 578e f1bd
000000a0: ae70 0f3d 9c0d c7bd 4309 71bc b1e9 ce3d
000000b0: b329 243e 4355 f7bd e38e 16be 91e8 373e
000000c0: 98b9 b8bb d468 233c b268 de3d 7f97 42bd
000000d0: e34b 7d3d 4637 babb 8434 9d3d 39f8 41be
000000e0: f095 0d3e e759 7dbd 25db 0dbe 3e65 3a3d
000000f0: 3f6a 193d 299d f3bc ac2e 153e a102 a4ba
-0.016816324 -0.07974987 -0.07368201 0.23197961 0.0035640453 -0.09353134 -0.070422634 0.08198441
0.02042784 -0.08998193 0.0076994007 0.041556492 -0.035554826 0.17263336 -0.0920605 0.074025005
0.049267337 0.2188678 0.093259715 0.011244142 0.015569495 0.010172177 0.011969426 -0.1654524
-0.043833442 -0.025659101 0.0013800794 0.071297705 0.025647445 0.024652004 0.15373756 -0.02970119
-0.025953626 -0.047540497 -0.1297624 0.056935288 0.039329313 0.1507826 0.095448904 -0.11794727
0.03501957 -0.09719393 -0.014711681 0.10103167 0.16031532 -0.12076809 -0.14702944 0.17959811
-0.005637359 0.009973723 0.10859813 -0.04750776 0.06183995 -0.0056828586 0.07676032 -0.18942346
0.13826728 -0.061853316 -0.13853128 0.04550671 0.03745484 -0.029738026 0.14568585 -0.001251299

weight f4 [64, 64]
00000000: 8e12 02bf 7e57 75be 4be6 5a3e 0626 e3bd
00000010: aa3d a93d 4ce0 af3e cf82 a03d 816a 91be
00000020: 1acc 96bd e9d9 9a3e 06fa a63e c6ff e13e
00000030: 9408 243d 26b1 45be de4d 373e 5c1f a4bd
00000040: 1ffd b13e 6cbf 6b3f 358a 8c3e 166d 6cbe
00000050: 7fd2 be3d 0f05 7dbd fd0a 323e adbd fe3d
00000060: 63c9 2d3e f9f0 fc3d 26fe 5dbe 7c2d 81be
00000070: ac17 7ebe 19c0 743e 2dba a53e ca7a 083f
00000080: 5594 56bc ff3e 3bbe eac7 ecbd f920 ec3e
00000090: 7d2c 0bbe 8653 e6bd 6f1c 93be a053 3c3e
000000a0: 72cf b63e 32cb ad3e 6587 a23d 7970 ddbe
000000b0: 3a7b f13d 72fd 89bd 0e27 6ebe 2f72 c83d
000000c0: a217 c03e 00ac a63e 657e 35be 0762 b2be
000000d0: 82fa f43b d221 063e 1e55 95be 8e0b 3e3e
000000e0: 0938 cebe 64dd 183d 7fbc d13e 38f4 62bd
000000f0: d020 35bd 3694 b03e c515 e73e cbd2 93be
00000100: 1ecd 313e 3b95 8fbb a33c 8cbe 530a bcbc
00000110: 1bee ef3c c933 4cbe 8bbe 463e 3edd d7be
00000120: 906b 5b3e e9dd 133e d737 33bd 35c6 2abd
00000130: c7ec 853e 8345 2f3e 5a4d ae3e ca33 c73d
00000140: ea45 ac3e 47bc 833e 8ff4 86be 0352 1abe
00000150: 7dec e6be 32e2 ae3d 10b2 17bd 8e66 9f3e
00000160: 9cd7 023e 3680 6abe 6320 f3be 3d74 6bbd
00000170: 9f89 0fbe 43cc 33be d3b7 fc3d 1aef e13e
00000180: 7731 92be ef81 ffbe f3cf ad3e 6d1d 143e
00000190: b7b5 483e 10c6 803e fda0 9dbd cbfb b63b
000001a0: db1c 523e 8519 ac3d cc8d 493e 2ebc 13be
000001b0: efe1 c2bd 0d8d 02be c911 babe adfb 643e
000001c0: a6bc 0b3f cb2b 2e3e f0a6 153e 5ede f23d
000001d0: bfc5 403d 7638 ef3d f503 37be d1ec 8a3e
000001e0: f8bb 2e3d eeba 533e 44a7 a63e be5e 473e
000001f0: 6eb2 9abe 6722 d03e 8f55 8fbd 725e 25be
00000200: 7f77 09be b35a 10be 1c36 fabe cb5b d53e
00000210: 6dcd 63be efa0 00bf 52f0 d4be 0e17 aa3e
00000220: 272b 16bd 42c8 b0bd 6aa1 713a fbe6 4e3d
00000230: 1493 be3e 5c14 7e3d cb59 523e 1d5e 8d3e
00000240: 9f2a 91bd 18d3 13be 22d9 2abe f89c 00be
00000250: 310d 92be eb4d 103d 47b0 c2bd 5c01 a5be
00000260: 314d 963e dff4 56bd 1b9d 42be da63 753c
00000270: 795a 663d fa36 d93e bddc 293e d943 58bd
00000280: e29a 96be cb96 123e ab82 833d 8f55 23bd
00000290: 852a 483e 63e1 f43e 3886 7f3c 06f2 5e3e
000002a0: 58b5 afbe fd13 86be 2556 95be ec1f 0dbe
000002b0: 9075 acbd 4ffc dabd 76f0 193e 672d 6a3e
000002c0: 2bd1 0b3d c5ab 9a3c 98af 553e 1e94 f83e
000002d0: e186 b0be 0383 0dbf da14 283d d44c 1ebe
000002e0: f76c 043f 1390 67bd a750 2c3d f7cd 9cbe
000002f0: f002 63ba 391c ea3c f495 ccbd 0a5a a8bd
00000300: d9b3 7abd a875 43be e73e 2abf 973a 193e
00000310: b214 c7be 7a4a 1ebf abc8 373d b873 35be
00000320: 0985 3b3e 67e9 0bbe 808d a5be 3d8b ee3c
00000330: 31a9 913e e938 ad3e 40b8 ec3d 27cc f3bc
00000340: f00a 8b3e 86b9 89be 6b23 e13d d6f9 dc3d
00000350: 8895 f0bc b042 d2bd 5e63 a4be 6486 213e
00000360: 4141 08bd afea bebe b552 9cbe fcc7 c93e
00000370: f9e4 70be 5374 be3e 9598 973e 4f0b 2d3d
00000380: d05f 95be 85c2 e4bd 0f06 c43e 0c61 91bd
00000390: 72f3 3bbd d50e 673e a5de 62be f6e7 553e
000003a0: a851 79be a906 a5be 8aef 48bd 070c 963c
000003b0: 6c1b c3be 2a0e a3bc 3a82 96be 99e3 773d
000003c0: 383e 53be 3679 813d 45ca 53be 8ee5 c7bd
000003d0: 8247 0fbe 99c8 993c 72fc 313e d4aa c5be
000003e0: 7bbe 83be 7afa 6cbe 8a6f 40be f27d 163e
000003f0: 4b72 c7bd c9c7 b43d 305e 5a3e cfe8 673e
-0.5080956 -0.23959157 0.21376912 -0.11091237 0.082637146 0.34350812 0.0783745 -0.2840157
-0.07363148 0.30244377 0.32612628 0.44140452 0.040047243 -0.19305858 0.17900798 -0.08013794
0.3476343 0.9208896 0.27449194 -0.23088488 0.09317493 -0.061772402 0.17387004 0.124385215
0.16971354 0.123506494 -0.21678981 -0.25230014 -0.24813718 0.23901404 0.32368603 0.5331236
-0.013096889 -0.1828575 -0.11561568 0.46118906 -0.1359119 -0.112463996 -0.2873263 0.18391275
0.35705143 0.33944088 0.07935981 -0.43249872 0.11791082 -0.06737794 -0.23257086 0.09787404
0.3751803 0.325531 -0.17723997 -0.34840414 0.007476152 0.13098839 -0.29166502 0.18559095
-0.40277126 0.03732051 0.40964124 -0.055408686 -0.044220746 0.34488076 0.45133796 -0.2887176
0.17363402 -0.0043818033 -0.27390012 -0.022954142 0.029288342 -0.1994163 0.19408624 -0.42160982
0.2142775 0.14440121 -0.043754425 -0.04169293 0.2615721 0.1711636 0.3404339 0.09726675
0.3364709 0.25729582 -0.26358458 -0.15070347 -0.451023 0.08539237 -0.037035048 0.3113293
0.12777561 -0.22900471 -0.47485647 -0.0574839 -0.14017342 -0.17558388 0.12339749 0.44127733
-0.28553364 -0.4990382 0.33947715 0.1446435 0.19600569 0.2515111 -0.07696722 0.0055842153
0.2051882 0.08403305 0.19682997 -0.14427254 -0.0951575 -0.12749119 -0.36341694 0.22361632
0.5458473 0.17008893 0.14614463 0.118588194 0.047063585 0.11680691 -0.17872603 0.27133802
0.04265973 0.20676777 0.3254949 0.19469735 -0.30214256 0.40651247 -0.06998741 -0.1614931
-0.1342449 -0.14097099 -0.48869407 0.41671595 -0.22246332 -0.50245565 -0.415896 0.33220714
-0.036662247 -0.08631946 0.0009217473 0.05051325 0.37221587 0.062031135 0.20542066 0.27610865
-0.070882075 -0.14435995 -0.16684392 -0.12559879 -0.2852569 0.03523056 -0.095062785 -0.322276
0.29355767 -0.05247962 -0.19005243 0.01497742 0.056238625 0.42424756 0.16588111 -0.05279908
-0.2941504 0.14315335 0.06421407 -0.039876517 0.1954747 0.47828206 0.015595965 0.21772012
-0.34318042 -0.26187125 -0.29167286 -0.13781708 -0.08420861 -0.10692655 0.15033135 0.22868882
0.034135025 0.018880734 0.20867765 0.48550504 -0.34477904 -0.55278033 0.04103551 -0.15458995
0.5172877 -0.056533884 0.042069104 -0.3062589 -0.00086598005 0.02857791 -0.09989539 -0.082202986
-0.061206672 -0.19087851 -0.6650223 0.14963757 -0.38882977 -0.6183239 0.044869106 -0.17719924
0.18312468 -0.13663255 -0.32334518 0.029119128 0.28449395 0.33832482 0.115585804 -0.029760433
0.27156782 -0.26899356 0.109930836 0.1078984 -0.029368177 -0.10266626 -0.3210706 0.15773922
-0.033265356 -0.37288424 -0.3053185 0.39410388 -0.23524846 0.37198123 0.29608598 0.042247113
-0.29174662 -0.11169914 0.38285872 -0.07098588 -0.045886464 0.22564252 -0.22155245 0.20889267
-0.24347556 -0.32231644 -0.049056567 0.018316282 -0.3810686 -0.019904215 -0.2939623 0.06051979
-0.20629203 0.06321947 -0.20682628 -0.09760581 -0.13992122 0.01877241 0.17381456 -0.38606894
-0.25731263 -0.23142424 -0.18792549 0.14696482 -0.097385965 0.088271685 0.21324992 0.22647403

bias f4 [64]
00000000: f2c8 fc3c cb40 a9ba 5ed2 983d 0b35 25be
00000010: e373 3e3c ebab 0e3e 3623 b13c 3b0e 0bbe
00000020: 5349 afbe 45f7 cdbd 051d b43b 3488 16be
00000030: 8c1e bd3c 0eb8 f53c 2cf7 6f3d 3d4e 10be
00000040: b912 f13b c610 d93d bda2 23bd 34f3 df3d
00000050: 5772 c53b ada0 05be 678f eb3d 0cd1 57bc
00000060: f6fb 1e3c a1a1 febd 5194 a33d 86e3 3e3e
00000070: 2fa5 353e 6b22 a4bc 1076 953c 2677 543e
00000080: 95cb c73d 3cad 2f3b ea96 34be 9167 383e
00000090: ae4c cdbd 2ee0 733d bee1 993d 3b5e 4fbe
000000a0: ce38 273d fbe1 cc3d d15f 793d 1036 1d3d
000000b0: 1796 5c3d c4ea 1abe 5d1a 663d 907d 18bd
000000c0: 6881 a63c 07d9 adbd e9a8 56bd 3a7d 49bd
000000d0: e8b8 94b8 d648 2e3d 32c2 403d e3cb c1bc
000000e0: e21d 6abd 44fc 3e3e a161 013e 5c30 28bd
000000f0: 7a20 50bd 82bd cdbd 2e92 8ebd 8573 233d
0.030857537 -0.0012912987 0.07461999 -0.16133516 0.011624309 0.13932769 0.021623235 -0.13579647
-0.3423563 -0.100569285 0.0054966235 -0.14700395 0.023085855 0.02999499 0.05858533 -0.14092346
0.0073569682 0.105989024 -0.03995012 0.10935059 0.0060255933 -0.13049574 0.11501961 -0.013172399
0.009703627 -0.12433172 0.079872735 0.18641481 0.17738794 -0.020035943 0.018244773 0.20748577
0.09755627 0.0026806137 -0.17635694 0.18008257 -0.10024391 0.059539966 0.0751376 -0.2025079
0.040825658 0.1000404 0.060882393 0.038381636 0.053854074 -0.15128618 0.056177486 -0.03722912
0.020325378 -0.0848866 -0.05240718 -0.04919169 -7.0916314e-05 0.04254993 0.0470602 -0.023656791
-0.057157405 0.18650919 0.12634899 -0.041061744 -0.050812222 -0.10045911 -0.06961475 0.03990509

weight f4 [7, 64]
00000000: 1584 9f3f a48d 8a3e 45be 01bf 73ff 703e
00000010: 7da4 e73f 4ad3 3d3f ad66 693f 9e7b eebe
00000020: e47d 123e 38e5 813e e8ec 9cbf 761b 8bbe
00000030: 327f 22bf c028 dbbd 4842 e63e 5fd9 213e
00000040: c684 89bf 045f 0cbe 7e35 823f 346e 8c3f
00000050: a5ce 303f fef5 e63e b169 9d3e a460 823e
00000060: bdc9 883d efea b23e ef7a 143f 7b3f 6b3f
00000070: 80f8 113f 6489 f33e 7dd7 1abe bc00 22bf
00000080: 11b8 393f d642 943f 614d 2e3e f2a0 babe
00000090: df7d 7f3f 838c 10bf f332 2ebf 2688 b73e
000000a0: c508 86bf 93c8 71bf 71d7 153f 787c d03f
000000b0: 66f7 633e 7e09 fabc 6fdc cd3e e91f 4bbf
000000c0: 3114 cf3e 96a5 80be 568c 5bbe 9693 7b3f
000000d0: 069f 41bf 220e b6bd c7af ca3e 017e 11be
000000e0: 4bac 803e fd97 173f 4830 fcbe f2f0 f33e
000000f0: dfa0 89bf 2d30 f43e 89cd 7fbf 5146 7fbe
00000100: 4d26 9cbe 147b 56bf f43c 48bf f0ed bcbe
00000110: c30e edbe 8f96 7fbe 71bc e1be 492f 913e
00000120: 6d51 bdbe 9255 13bf acf7 103f 190b 80bd
00000130: e267 503f 6e6b 2cbf 0596 023d bc47 48bf
00000140: eba7 503f 949c 8abd c7e7 75bf db4a 62bf
00000150: 1e09 36bf e363 6dbf 35cf acbf a602 323e
00000160: 48b5 a3bf fea6 a1bf 26d3 70bf 2e65 aa3e
00000170: c7df 82bf 50ab a3bf 30af 95bf d7c2 f33e
00000180: 7941 14bf 8a25 91bd 3cbf e1be 2e3e 3dbe
00000190: 79b7 4fbe 1396 763f 234b 383f ea36 3cbc
000001a0: 8c88 7bbd 004a 1a3f 5506 64bf 1403 13bf
000001b0: 7bd2 b73e 8750 c0be 8ff5 87bf e402 ec3e
000001c0: bd73 27bf 7304 903f 4c3f f23e f548 3abe
000001d0: 3da4 843f 698e e1be 6473 62be 4300 b8be
000001e0: ef3f f1be 7bd4 ecbe a555 dfbd bfe6 8fbf
000001f0: b890 443f 1292 1a3f 95ac 5c3f b7ca 0f3f
00000200: c82a f1bd 1182 4bbe e76c 663f 3b63 343f
00000210: de36 1abf cceb ffbd 87b3 413e 0b19 573f
00000220: b970 7a3e 1634 493f ce52 4d3f 2002 a03f
00000230: 0a6b 843e 74fd f83e 26cb bebe caf6 3a3f
00000240: 60d8 9a3d 98bb 0fbf e42f 09bf 13a9 893e
00000250: db05 283f 0836 873f 9519 203f 1207 383e
00000260: 3aa4 403f 3987 413f ef9a 94be 8e03 30bf
00000270: 1530 0f3f 9beb 173f 63d6 803f bd8a 9bbc
00000280: bd37 513d cf77 41bf 360c 993f 74f8 24bf
00000290: d9db c5be 1b37 72bd f758 dbbc 2cda d53e
000002a0: c3bf 943f 0136 423e 6fd0 2a3f 8a7d 6cbf
000002b0: 001b 54bf 5bab 2c3f 4b76 1c3f 2038 eabe
000002c0: f9d1 7f3e 719c 8dbe edf7 09bf b59c b3be
000002d0: c169 313e 064d 4c3f de7a 00bf 5dae 743f
000002e0: 58e6 0d3f a69a 373f 611c f1be 5e0b 473f
000002f0: a9da 6ebe 4c8b 60bf c697 593f 63bc b43e
00000300: ff08 72bf 7513 213e a08f 0d3f 06a4 503f
00000310: a6c7 ed3e 8a49 86bf e3f0 5bbf 8239 4e3f
00000320: 5f55 febe 5142 633f 1d05 7abf 529a ccbe
00000330: 3a36 ad3e fd93 32bf f6e8 7c3f c56e 78bf
00000340: c2c8 65bf c67e 653f 7aae ec3e 2af7 11bf
00000350: 3c51 61bf d3d6 2dbf bdd8 103f 0711 593f
00000360: 2048 103d e4b3 bf3e 601a 053f 0708 2f3f
00000370: 55b8 21bf afe0 963e 3ac9 a2bd 6714 783f
00000380: 5e68 123e 359f 913e c457 a13e 6f46 553f
00000390: 9115 8fbe 56cf 373e 1fad fe3a ac04 21bf
000003a0: e67a f1be 1983 263f 6df4 51bf 4100 a73e
000003b0: e1c2 1c3f ee2b 65bf 48aa 683f 447a 23bf
000003c0: b277 0dbf 6f7e ba3d 2bfe 9b3f a6db 7b3f
000003d0: 8662 d9be 0aec 163f bf7a 1d3e 4c7b edbd
000003e0: f53b 86bf 3e3a 983e ed4b d53e a4a0 143f
000003f0: 44ae 6cbf b343 15bf 68b4 efbd 276a d03c
1.2462183 0.27061188 -0.50680953 0.23534946 1.8097073 0.74150527 0.91172296 -0.46578687
0.14305836 0.25370193 -1.2259798 -0.2716939 -0.63475335 -0.10701132 0.44972444 0.15805577
-1.0743644 -0.1370812 1.0172575 1.0971131 0.69065315 0.45109552 0.307447 0.25464356
0.066791035 0.34944865 0.5800008 0.9189374 0.57019806 0.47565758 -0.15121265 -0.6328237
0.7254649 1.1582897 0.17021705 -0.36450917 0.9980144 -0.56464404 -0.6804649 0.3584606
-1.0471426 -0.94446677 0.5853186 1.6287985 0.22262344 -0.030522104 0.4020724 -0.79345566
0.40445092 -0.25126332 -0.21440253 0.98272073 -0.75633276 -0.08889414 0.39587232 -0.14208223
0.2513145 0.5921629 -0.49255586 0.47644764 -1.0752219 0.47693005 -0.99922997 -0.24929167
-0.3049797 -0.8378155 -0.7821801 -0.36900282 -0.46300325 -0.24959777 -0.44089082 0.28356388
-0.36976185 -0.57552445 0.5662792 -0.06252117 0.8140851 -0.67351425 0.03188135 -0.7823446
0.8150622 -0.06768146 -0.9605679 -0.8839547 -0.7110766 -0.9273054 -1.3500735 0.17383823
-1.2789698 -1.2629087 -0.94072187 0.3328032 -1.0224541 -1.2786655 -1.1694088 0.47609589
-0.57912403 -0.07087238 -0.44091213 -0.18480751 -0.20284833 0.96322745 0.7198965 -0.011487702
-0.061409518 0.60269165 -0.8907216 -0.5742657 0.3590277 -0.37561437 -1.0621814 0.46095955
-0.6541098 1.1251358 0.47313917 -0.18191893 1.0362622 -0.44053963 -0.2211433 -0.359377
-0.4711909 -0.4625586 -0.10905007 -1.1242293 0.76783323 0.60379136 0.8620084 0.56168693
-0.11775738 -0.19873835 0.9000992 0.70463914 -0.6023997 -0.124961466 0.1891614 0.8402259
0.24457063 0.785951 0.80204475 1.2500648 0.25862914 0.4863087 -0.37264365 0.7303282
0.075608015 -0.5614562 -0.535887 0.26886806 0.65633935 1.0563364 0.62539035 0.17971447
0.7525059 0.7559696 -0.29024455 -0.68755424 0.5593274 0.5934388 1.0065426 -0.018987054
0.051078547 -0.7557344 1.1956851 -0.6444161 -0.38644293 -0.059134584 -0.02677582 0.41768014
1.1621021 0.18965913 0.66724294 -0.9237906 -0.828537 0.6744897 0.61118 -0.45745945
0.24982442 -0.27658418 -0.5389393 -0.35080495 0.17325498 0.7980503 -0.5018748 0.9557856
0.554296 0.7172035 -0.47091964 0.7775172 -0.233256 -0.8771255 0.8499721 0.35299978
-0.94544977 0.15730079 0.5529728 0.8150028 0.46441382 -1.0491192 -0.8591444 0.805565
-0.49674508 0.88773066 -0.9766405 -0.39961487 0.33830434 -0.6975706 0.9879297 -0.9704402
-0.8975946 0.89646566 0.46226865 -0.5701777 -0.8801458 -0.6790592 0.56580716 0.84791607
0.035225034 0.37441933 0.5199337 0.68371624 -0.63171893 0.29468295 -0.07948537 0.9690613
0.14297625 0.28441778 0.31512272 0.833106 -0.2794614 0.17950186 0.0019430256 -0.62897754
-0.47164077 0.6504379 -0.8201359 0.3261738 0.6123486 -0.89520156 0.9088483 -0.6385844
-0.55260766 0.091061465 1.2186941 0.9838203 -0.4245798 0.5895392 0.15378855 -0.11595783
-1.0487047 0.29731935 0.4165949 0.5805762 -0.9245341 -0.58306426 -0.11704332 0.025441242

bias f4 [7]
00000000: cc70 f93d a633 e63d 6cde 7e3d b463 073e
00000010: 6091 343e 7004 203e 03ce 853e
0.121797174 0.1124032 0.062223837 0.13221627 0.17633581 0.15626693 0.26133737

weight f4 [64, 908]
00000000: 8b9c 88be 3110 cdbe e126 bdbe ba0a 6b3e
00000010: 71ef 3b3f 3e17 e8be 175d a8be 0599 153e
00000020: 7ea4 1ebe fcb5 fcbd e7ec 633f b9af 67be
00000030: 743d c33f 3183 1bbf 3b4a f4bd e9c2 08be
00000040: 7ecf e03e 800d abbe aace 9c3e 77d0 013f
00000050: 6f37 93be 5082 dabe dfe1 1abc c607 31bf
00000060: d2f3 fcbe 1879 e3be 1f4f 4e3f 6217 d9be
00000070: 1762 42bf 33b3 65bf 347a 083f e927 73bb
00000080: 5f4f e2bd e188 03bf 8f2f 863f 3841 38be
00000090: 2628 6b3c 5e21 9ebf 4617 22bf 4aaf 90be
000000a0: f17b cc3e 4576 5dc0 aba7 e63f 8a87 9fbf
000000b0: 64a6 e43e 40dd c8c0 0892 cdbe 46af d3bf
000000c0: 0ea9 4d3e 8698 08c0 1b61 933e 3853 b13e
000000d0: 7dbe c33f 2efc a0bf a104 e13e eeb8 14bf
000000e0: 3f62 56be a4ae 773f 5593 b73d d48f 5f3f
000000f0: 6f91 393d 084e 04bf 4750 313f 7ae2 1c3f
00000100: 940e 2e3d 47ec 293e 7e97 f7bc c913 2c3f
00000110: 152a c4bc 3640 063e c08b 793f 42e7 8f3e
00000120: cf44 983e 7ae8 b83e 1066 503f 0656 373f
00000130: 5866 b1bf f9bc 053f b9b3 fe3d d8df b8be
00000140: 6308 39bd 2256 1abf d195 a4bf a468 b53c
00000150: 4e44 ca3f 240f d7bc 9b16 cabc 4913 eabe
00000160: 91ff 57be a050 853d bdb0 403e d88a f43d
00000170: c250 94bf 82ab 273e 4cc9 bbbd 62dd 18bf
00000180: 6622 173f c7ed bf3e 8d1b 113f 443d 1f3f
00000190: dcc2 aa3f 08ee 5abf 9dae d53e 81ce 423f
000001a0: b053 e5be 45e5 97bf e0cb 14bf 3d96 2ebf
000001b0: 93d8 533f deb6 30bd e935 093f 8e9b 033f
000001c0: 428a 033f b264 45be 3345 54bf 1454 063e
000001d0: dc1d 06bf c4eb a43e 31da 7ebe aab9 973e
000001e0: d96d bd3d cff8 bcbe f99c 55be 4eac 8b3e
000001f0: 8187 173c 8c89 a33d 3948 433f d981 d63e
00000200: 4424 34bf cce6 093e f669 05be 9798 073f
00000210: 0937 b03e fd5b 763f 391d 2e3e fbb0 19be
00000220: 7e26 60bf e7c0 9a3f fb67 1bbd 31d6 60be
00000230: 8b05 21bf 93cc 0c3e 2668 b5be e648 053f
00000240: 60fe cebf 869f 87bf 1982 203e 1b4a f3bc
00000250: 93fb ba3e a1d8 93be cf92 233c 6aa6 2bbd
00000260: 5b48 453f 26a9 b0bf cccc cdbe a121 47bf
00000270: 61e3 72be bf7b aa3e 7c4c 78bc 434d 493f
00000280: d366 4abf 1429 83be f498 d33d dfab 20bf
00000290: a129 0d40 df9c 20be 528b 1fbe db89 74be
000002a0: c146 023d 5eec 9ebd c375 9c3f 9b2b 003f
000002b0: 99e8 73be 49be 18bf 6440 9dbf 976c 3cbf
000002c0: 8b49 073f d78b ad3e 5fa4 2640 e5f3 5b3f
000002d0: 4277 d8be 7536 14bf 15e2 753f fc77 bb3e
000002e0: bdf8 8cbd 2768 a6be 0661 793f 6cb4 3ebf
000002f0: 4f21 70bf ba60 98be 60ac 973d a371 3d3c
00000300: 5062 42bd 4b8f 5f3f 9173 ca3e 6b07 403f
00000310: 6c41 583e 0926 25be 7bb0 9c3d 943a e33e
00000320: 4110 d8bc 6d0b c5bd ca33 85bf 8a3f 3d3e
00000330: 3ce8 b1ba 5275 c83e 04ca 4ebf 3ed7 ef3e
00000340: 07ec 1b3f 034c ebbf e069 e93e 4283 483c
00000350: 178e 44bf 8d83 bcbf b6df 333e eff1 593f
00000360: 25ea 4dbf 64d1 2abf 1eef c2bb d909 2dbd
00000370: 7348 b4be 05a7 393f a2ca 11bf c5ca 893d
00000380: 183f 34be 2263 9fbe 1e9e d0bd b340 333c
00000390: 5b1f 933e ff30 4a3e a43b d43e b4de ba3d
000003a0: abcf 24bf b6d2 ffbe 371c 96be 38bd ecbd
000003b0: 6285 aebf 8e56 793e de4e 643f f292 273f
000003c0: 1a20 e03d 17c2 c1be 5303 9f3e e49f 353e
000003d0: 1d3c 233f c615 363e 9017 513f 9859 80be
000003e0: 1147 c03e 9b21 c5be 128c 9f3e e818 2c3e
000003f0: 4fb1 44be cba5 1dbe f4f3 96bf 4439 3c3e
-0.26681933 -0.40051416 -0.36943725 0.2295331 0.73412234 -0.45330232 -0.32883522 0.14609154
-0.15492436 -0.12339398 0.8903336 -0.22625627 1.5253129 -0.6074706 -0.11928221 -0.13355602
0.43908304 -0.33408737 0.30626422 0.5070872 -0.2875323 -0.42677546 -0.009453266 -0.69152486
-0.4940477 -0.44428325 0.8058948 -0.42400652 -0.75930923 -0.8972656 0.5331147 -0.0037102646
-0.11050295 -0.51380736 1.0483264 -0.17993629 0.014352834 -1.2353933 -0.6331676 -0.28258735
0.3993831 -3.4603436 1.8019918 -1.2463238 0.44658196 -6.277008 -0.40150476 -1.6537864
0.2008402 -2.1343093 0.28785023 0.34633803 1.5292507 -1.2576959 0.43948844 -0.5809468
-0.20935915 0.96750855 0.08963648 0.8732884 0.045304712 -0.51681566 0.6926312 0.61283076
0.04249437 0.16594039 -0.030223604 0.6721769 -0.023945848 0.13110432 0.97478867 0.28106123
0.29739997 0.36114866 0.81405735 0.71615636 -1.3859358 0.52241474 0.12436623 -0.3610828
-0.045174014 -0.6028768 -1.285822 0.022144623 1.5802095 -0.026252337 -0.024668982 -0.45717838
-0.21093585 0.065095186 0.1881742 0.11940545 -1.1587145 0.16374019 -0.09169254 -0.59712803
0.5903686 0.37486097 0.56682664 0.6220286 1.3340716 -0.85519457 0.41734782 0.7609635
-0.4479041 -1.1866843 -0.5812359 -0.68197995 0.8275234 -0.043143146 0.53597885 0.5140923
0.5138284 -0.19276693 -0.8291809 0.13118011 -0.5238931 0.32211125 -0.24887921 0.29633838
0.092494674 -0.36908576 -0.20860662 0.27279896 0.009248615 0.07985219 0.7628208 0.4189594
-0.70367837 0.13466948 -0.13028702 0.5296721 0.34416988 0.9623411 0.17003335 -0.15008919
-0.87558734 1.2090119 -0.03794096 -0.21956708 -0.6289908 0.13749914 -0.3543102 0.5206436
-1.6171379 -1.0595558 0.15674628 -0.029698422 0.3652006 -0.28876212 0.009983732 -0.04190675
0.7706353 -1.380162 -0.4019531 -0.7778569 -0.2371955 0.33297536 -0.015154954 0.7863352
-0.7906315 -0.25617278 0.10331908 -0.62762254 2.2056658 -0.15684842 -0.1558049 -0.23880713
0.031805757 -0.07759927 1.2223438 0.50066537 -0.23819198 -0.5966535 -1.2285275 -0.73603195
0.5284659 0.33895752 2.6037824 0.8591903 -0.42278486 -0.57895595 0.960481 0.36614978
-0.068833806 -0.32501337 0.9741367 -0.7449405 -0.93800825 -0.29761297 0.07405925 0.011562738
-0.04745704 0.8732802 0.39541295 0.7501132 0.21118706 -0.1612779 0.076508485 0.4438063
-0.026374938 -0.0962132 -1.040643 0.1848127 -0.001357324 0.39152008 -0.80777 0.46843904
0.60907024 -1.8382572 0.4558859 0.012238326 -0.7677931 -1.4727646 0.17565808 0.85134786
-0.804354 -0.66725755 -0.005948915 -0.04224572 -0.35211524 0.72520477 -0.5694982 0.06728128
-0.17602193 -0.3113032 -0.101864085 0.010940718 0.2873486 0.19745253 0.41451752 0.091245085
-0.64379376 -0.49965447 -0.293184 -0.11559528 -1.3634455 0.24349424 0.8918284 0.65458596
0.10943623 -0.3784339 0.31057224 0.17736775 0.637636 0.17781743 0.8167658 -0.25068355
0.3755422 -0.385022 0.31161553 0.16806376 -0.19208263 -0.15395276 -1.1793199 0.1838122

bias f4 [64]
00000000: 95ae 973f 890b d1be 8b38 b9be 01f5 6cbe
00000010: c6b4 103f df77 c6bd ac54 edbe 3b31 6a3e
00000020: d7bd 5b3f bed1 09be d66d ec3e 5875 3cbe
00000030: 2d46 94be 5287 863d d19e 8e3d 803f dd3e
00000040: f51f 983e b61f 21be 8458 433e f7cb 663e
00000050: 2b39 ad3e 0c17 25bd 4df6 9d3e 6b63 53bd
00000060: 070d 3cbe 8317 4e3f 3cbf f53e 83af 4fbe
00000070: 74f8 ee3e 979e eebe e14b b33e 233c 0a3e
00000080: 78ad c53e 5562 3cbe c779 86bd 932b d5be
00000090: f620 90be d825 38be 1cbd ce3e 54b3 483f
000000a0: c59b 59bf 8980 18bf 6741 3c3f 5f07 94bf
000000b0: 251b 83bf 2937 d13e d111 b6bd b821 9a3e
000000c0: c24d 083d d2ad fc3e c0d0 f6be 23e1 3c3f
000000d0: 191b ee3e babe 90be a3cd acbf 61e8 583e
000000e0: da1d 733e acfb 693e 0b10 b93e 4583 283f
000000f0: e478 bb3d cd43 59be e5f2 753e 8b0f 09bf
1.1850153 -0.40829113 -0.3617595 -0.23140337 0.5652584 -0.09690832 -0.46353662 0.22870342
0.8583655 -0.13458917 0.46177548 -0.18404138 -0.2895979 0.06568779 0.069638856 0.4321251
0.2971188 -0.15734753 0.19076735 0.22538744 0.33832678 -0.040305182 0.30851975 -0.051608484
-0.18364345 0.80504626 0.47997463 -0.20281796 0.4667393 -0.4660537 0.3501883 0.13499503
0.3860891 -0.18396886 -0.06566196 -0.41634807 -0.28150147 -0.17983186 0.40378654 0.78398633
-0.8500331 -0.5957113 0.73537296 -1.156475 -1.0242659 0.40862396 -0.08890117 0.3010385
0.03327728 0.49351364 -0.4820614 0.7378103 0.4650505 -0.28270513 -1.3500255 0.21182396
0.23741856 0.22849911 0.36145052 0.658253 0.091539174 -0.2121727 0.24018438 -0.5353934

weight f4 [64, 64]
00000000: 696c b9bf b922 ab3e 0ba3 8ebf 6713 28be
00000010: 1b4f be3e 1a69 763f 2917 a7be 4bd2 0cbd
00000020: 98f4 dcbf f9bb 503d 610d f93e 85ae 0a3e
00000030: d501 ddbd da16 03bf 5bde 41bf 8623 c4bf
00000040: 3f41 b43d 07d9 513d 2138 ab3e 9124 e63d
00000050: 5930 b83e d636 923e 0e25 2a3d 5ee2 5ebf
00000060: 4e3c 4fbe b99b 433f 28ad 6f3d bf5f 173e
00000070: 6ccb 933f 34ac 8eba 49ea 643e 2134 7fbf
00000080: 91de 0f3f 02b2 2ebe 0d91 8c3f d5a7 31bd
00000090: 5bb7 b4be bbce d4be 6653 1f3f cd47 a1be
000000a0: 7198 d03e 5569 f5be 17c9 813f 773e 053e
000000b0: ce6f 99bd 04cc 243f d996 933f 5846 0c3f
000000c0: b9d2 673f 782d 513f 5228 4bbf a4c0 9b3f
000000d0: b95f d03e 4f4a 073f e6b3 a4bd c4e0 0d3f
000000e0: 55f9 603f 5b30 0b3e d3e3 473f 2bdc 023f
000000f0: 1a55 713f 2149 e93d 79e0 a63e dbde 05bf
00000100: 8c00 993f a92e 583f 76af 2bbf 5b40 a93e
00000110: 3238 1d3e 1146 3e3f 1ab6 af3d 3be1 c13e
00000120: 2efc 993e 7303 1ebf 12f9 58bf ee8b b53f
00000130: 76f4 1c3f 1f69 4dbf 8672 00be 97d9 9dbc
00000140: eb6b c6be aedd 78bd 5232 e3be f115 2d3d
00000150: 7393 a6be 3423 883e 221c 76be c55a 203f
00000160: d716 263f 80e8 023f e837 f8be 185f 173f
00000170: 3af7 a8bf f93c 733f 9984 2cbf b0bf e43f
00000180: 8e5b 66be 9424 c43d 920e 0d3f 18eb 133e
00000190: 0769 023f 9fff a4be 136b 013f 8345 e2be
000001a0: a04f 213f dac7 7fbc 7350 93bf 130a 153f
000001b0: 68cd 26be 00f1 c3bf 5095 31bf 8ad0 673e
000001c0: 0614 8bbf 212b 41bf 326b c23f a24a 2a3f
000001d0: e302 69bf bc9c 52bc 8fd7 d93e 0797 02c0
000001e0: 6266 c3bf 5698 83be f14d c23f 374b e5be
000001f0: 7cb6 ae3c 857e 843e 886d f1be 878a dcbe
00000200: f7f4 f1be 05ac bcbe 274e 17bf 65f1 f9be
00000210: b5be 1abf 3f2b 933d bf5e d0bd bfb5 2e3d
00000220: 4c8f 7fbf 61eb c7be 902f 573e 8831 24bf
00000230: 0fac bebe 3b9a 34bf 51e7 46be 59e1 c6bf
00000240: 3435 783e cafa 8bbe ecba 64bd 6aa6 4a3e
00000250: 7805 1b3f dad9 003f ceda b33e dc1b d33f
00000260: dcd7 8bbe 9b56 28bf 86b5 a33e 3a1c 8cbf
00000270: e5b0 d73e da7c 35bf 6ca8 743e c94b 7ebd
00000280: e223 d83e 6637 61be 0cce 793f c0c7 cdbe
00000290: e01f 91be 0e1a 15be e0bc e43e e9c4 bd3f
000002a0: 1b69 edbe eebd 91be 1180 eabe 291a 7b3f
000002b0: 4bcb 3fbf 4d2e b23f d27d 893f b8b8 a23f
000002c0: b0a9 32bf 6f9e a83f 8bf1 523e bea4 4abe
000002d0: 5e32 473e 1afe a73d dd08 43bf a1c7 30bb
000002e0: eac3 473f dee3 523e 4563 08be 6f53 a63e
000002f0: 90fc 073f 0a08 06bf d980 d7bd ee46 87be
00000300: fd18 35c0 eb28 4d3d f686 ebbd 7648 243f
00000310: cbb8 afbf f461 b8be 2b87 053f e4ac 943d
00000320: 62af aabf 1df8 b0bc a5aa c5ba a973 943d
00000330: 2e94 4b3f 50f6 00bf 2ec5 c73e 582a 8bbf
00000340: 76e5 3fbf 6e2d 633f aeef aabe 58d7 74bf
00000350: cc44 eebe c8a8 6d3e 7a47 bdbd 0d79 fabf
00000360: f04a 6f3f 4bd4 a3bd c4fc 81bf 0ac5 06be
00000370: da7d 7dbf 01f5 5fbb cd00 1c3f 9e49 b7bf
00000380: da3b 49bf da68 553f 14fc 593f 2341 123f
00000390: 5028 783e 2c10 e33e 967e 82bf c342 23bf
000003a0: 9aaa f63e ac0f 753f 1ce7 fa3f 9de0 673f
000003b0: c325 9dbf e3c8 6cbd 7495 cf3d 7b75 813f
000003c0: 0c80 8f3f d11e 2bbf d8bf 28be e92a 09bf
000003d0: 05fc 80bf d4b4 383f 4d8e dc3f acc6 11bf
000003e0: 59be 483f 0616 7bbf d08f d3bd 1ead 023f
000003f0: ad75 5a3f b8ce 6b3f aac0 adbe 4bea b63f
-1.4486209 0.3342493 -1.1143507 -0.16413651 0.37169728 0.9625412 -0.32634857 -0.03438024
-1.7262144 0.050960515 0.4864302 0.13543136 -0.10791365 -0.51206744 -0.7572991 -1.5323341
0.08801507 0.051232364 0.3344126 0.11237443 0.35974386 0.28557462 0.041539244 -0.8706416
-0.20237848 0.7640949 0.058514744 0.14782618 1.1546454 -0.0010885061 0.22354998 -0.9968892
0.56198984 -0.17060092 1.0981766 -0.043372948 -0.3529614 -0.41563973 0.6223663 -0.31500092
0.40741304 -0.47931924 1.0139493 0.1301211 -0.07492028 0.64373803 1.153041 0.54794836
0.9055591 0.81710005 -0.793584 1.2168164 0.4069803 0.5284776 -0.080421254 0.5542109
0.8788045 0.13592665 0.7808201 0.511172 0.9427048 0.11390901 0.32593134 -0.52293175
1.1953292 0.844462 -0.6706461 0.33056912 0.15353468 0.7432566 0.08579655 0.3786715
0.3007521 -0.61724013 -0.8475505 1.4183328 0.6131052 -0.8023853 -0.12543687 -0.019268794
-0.3875421 -0.060758285 -0.4437433 0.042257253 -0.3253437 0.26589358 -0.2403417 0.62638503
0.648786 0.51136017 -0.48480153 0.59129477 -1.3200448 0.9501491 -0.6738983 1.7870998
-0.22495863 0.09577289 0.5510036 0.1444515 0.5094151 -0.32226273 0.5055401 -0.44193658
0.63012123 -0.015611613 -1.1508926 0.582185 -0.16289294 -1.5307922 -0.6936846 0.22638145
-1.0865486 -0.75456434 1.5188963 0.6652013 -0.9102003 -0.012854751 0.4254727 -2.040468
-1.526562 -0.2570216 1.5180036 -0.44783947 0.02132725 0.25877777 -0.47153878 -0.43074438
-0.47257206 -0.3684999 -0.59103626 -0.48816982 -0.60447246 0.07185983 -0.101743214 0.042653795
-0.9982803 -0.39046767 0.21014237 -0.6413808 -0.37240645 -0.70547837 -0.19424178 -1.5537521
0.24239045 -0.27339774 -0.055842325 0.19790044 0.6055522 0.50332415 0.35127872 1.6492877
-0.27313125 -0.6575715 0.3197443 -1.0946114 0.42127147 -0.70893633 0.23892373 -0.062083993
0.42214876 -0.21993789 0.9758003 -0.4019146 -0.2834463 -0.1456072 0.4467535 1.4825717
-0.46369252 -0.28465217 -0.45800832 0.9808679 -0.74919575 1.392038 1.0741522 1.2712622
-0.6979017 1.317335 0.20599954 -0.19789407 0.19452807 0.08202763 -0.761854 -0.0026974457
0.78033316 0.20594737 -0.13319118 0.3248553 0.53119755 -0.52356017 -0.105226226 -0.26421303
-2.8296502 0.05008785 -0.11500351 0.64173067 -1.3728269 -0.36012232 0.52159375 0.07259539
-1.3334773 -0.021602685 -0.0015080763 0.07248623 0.7952298 -0.50375843 0.39017624 -1.0872297
-0.74959505 0.88741195 -0.33385986 -0.9564109 -0.46536863 0.23208916 -0.09242149 -1.9568192
0.9347372 -0.07999476 -1.0155263 -0.13161102 -0.9902016 -0.0034173133 0.6093872 -1.4319341
-0.7860695 0.83363116 0.85150266 0.5713064 0.24234128 0.44348276 -1.0194881 -0.63773745
0.48177034 0.9572704 1.9601779 0.9057711 -1.2277149 -0.057808768 0.10135928 1.0113977
1.1210952 -0.668439 -0.16479433 -0.535811 -1.007691 0.7215092 1.7230927 -0.56943774
0.7841545 -0.9808048 -0.103301644 0.51045406 0.8533581 0.921123 -0.33936054 1.429025

bias f4 [64]
00000000: 8b43 f93d 527b 05bf 163d 643e 12d0 62bf
00000010: 8b56 cc3d 0d0b a2be 896d d5bd f872 6fbe
00000020: c1bf 093d d2f2 fb3e cd22 53be 62c0 01bf
00000030: 63ce ef3e 4e36 6c3e dfa9 443e 2f30 dd3d
00000040: 7f3d bcbe 57aa 14bf a4b6 f63e c35e 033d
00000050: d7f2 bbbe fb50 e2be d729 103e 750a 88be
00000060: a560 e9be 463b 0a3f 5262 cfbd 5620 a9be
00000070: 8442 d23c 7518 a9be 430a 7d3e b156 c63c
00000080: ee3c 2c3d bb26 82bd e2f3 56be bfc9 cd3e
00000090: 6356 babe 9972 5a3e e3d7 31be 94be fabe
000000a0: 9c8b f7be e6ce d03e db77 f8be ce5b d43e
000000b0: c4d4 983b 045a b73e 39ba 923e f371 4f3e
000000c0: a033 2abf 03b2 f73e f83d 5a3d 4ce4 abbe
000000d0: 14a4 8f3e 170d 373e 04d9 bf3e fd5e e0bd
000000e0: 0b36 b1be bfe7 b83e 9f2c 9e3e 2040 88be
000000f0: db04 b43e 6012 e3be e13a ff3c 4ebe e6be
0.12171086 -0.52141297 0.22288927 -0.8859874 0.09977444 -0.31649056 -0.10421283 -0.23383701
0.033630136 0.49208695 -0.20618744 -0.5068418 0.46837148 0.2306759 0.19205426 0.10800206
-0.36765668 -0.5807242 0.4818622 0.032072794 -0.3670871 -0.44202408 0.1407846 -0.26570478
-0.45581546 0.53996694 -0.10126175 -0.33032483 0.025666483 -0.33026472 0.24710946 0.02421126
0.042050295 -0.063550435 -0.20991471 0.40192983 -0.36394033 0.21332778 -0.1736751 -0.48973525
-0.483487 0.4078285 -0.48528942 0.4147629 0.0046640355 0.35810864 0.28657702 0.20258312
-0.66485023 0.48378 0.053281754 -0.33572614 0.2805487 0.17876087 0.37470257 -0.109556176
-0.34611544 0.36114308 0.30893418 -0.26611423 0.35159954 -0.44349957 0.031156005 -0.45067066

weight f4 [1, 64]
00000000: 56ff 8a3e faf3 0cbe 22ae 473e 716a 583f
00000010: 6e92 be3e a3ef 5ebf e46f 0f3f 7489 053f
00000020: 20cc 1e3f b14c 39bf b160 393f 47be 25bf
00000030: 2aa5 b23e 446e b83e d1e0 303f e57c 813e
00000040: aca9 24bf 7ac5 5b3f 8c04 9e3e 054d 14bf
00000050: c8f9 debe 1f92 403f 9f0f 823f 3a7c 4c3e
00000060: 122d 253f 1446 293f e923 0e3f 1050 da3b
00000070: be53 cd3e 3b3c 2e3f 0914 233f a08a 1b3f
00000080: 683d 033f 4a12 4dbe 4393 3bbf 986e 5cbf
00000090: d86b fbbe fce0 c6be 34c2 a2bd 691c 3f3f
000000a0: b96e c8be 68ae c23e 2b4b 1dbf 0bc3 46bf
000000b0: c39d 0d3f c966 a93e 8625 aebe bce9 553e
000000c0: f002 823f 405e 35be a066 c3be 65b4 81be
000000d0: a1c0 2a3f 8507 49bf 2911 c43e 0a0a 303f
000000e0: 1a62 eebe 4f4e 3fbf 8d95 32bf 38c6 dbbe
000000f0: 22de d23e e19a ebbe 5bb7 10bf b5a1 5c3d
0.2714793 -0.13764945 0.1950002 0.84537417 0.37221092 -0.87084407 0.56030107 0.5216286
0.6203022 -0.72382647 0.72413164 -0.64743465 0.34891635 0.36021626 0.6909304 0.252906
-0.643214 0.858482 0.30862844 -0.5793002 -0.43549943 0.75222963 1.0161017 0.19969264
0.64521897 0.66122556 0.55523545 0.006662376 0.40102953 0.68060654 0.63702446 0.607584
0.51265574 -0.20026508 -0.7327158 -0.8610625 -0.49105716 -0.38843524 -0.079471976 0.74652725
-0.39146975 0.38023686 -0.6144282 -0.7764136 0.5531885 0.3308623 -0.34013003 0.20889944
1.0157146 -0.17711735 -0.38164234 -0.25332943 0.6670018 -0.785271 0.38294342 0.6876532
-0.4655922 -0.74728864 -0.69759446 -0.42924666 0.411851 -0.460166 -0.5652978 0.053865153
