bomberman/teams/bdc_entertainment.pt (torch, 508242 bytes, 11 tensors)

weight f4 [64, 908]
00000000: 8d46 00be fda1 ffbd e4eb 003c a577 d0bd
00000010: f910 98bd 6b34 b9bc 93e0 84bc 618e 123c
00000020: f77a 393d 7d00 123e 9dae c93d 2eec e63d
00000030: 28f8 e03d 01c1 8fbd 24b0 70bd ae7f 933c
00000040: 3f65 fabd 2b6c b7bd e193 d6bc 3e20 86bd
00000050: 7fdc 6e3e bf0d fbbd 3718 c4bd ecf1 e0bd
00000060: c5ad 5dbd bb30 1e3e 0f51 d63e 6cd1 113d
00000070: a071 0ebd 2f9c f63e 0691 923e a940 bc3e
00000080: 1678 01bd 3d71 853a 955e 1bbe 96d8 dc3d
00000090: f21d d9bd e0c5 43be a967 aabd 74a6 7ebd
000000a0: 9f2f 75bd d609 fb3c 2f26 3e3d 49ae cebc
000000b0: 95ed 3cbb 5cf0 10be 364d ef3c 10ba e0bd
000000c0: 4e71 9bbc 1396 813c c61c b9bc f8f0 063c
000000d0: 422c f639 c232 333e 327b b1bc 0e9f 4dbc
000000e0: 1059 0eba 0aa8 ac3c e8af d93d 40c2 e6bb
000000f0: db0d 80bd 25e4 53be 9dc3 9c3d 8d12 71be
00000100: fc40 293d 22a4 f03d 0693 bc3c 517a 9f3c
00000110: f9f2 8bbe 4ba9 8a3e 72d6 1cbc c595 8e3e
00000120: 1307 b73e 51ae e33d be47 10be b0c5 8c3e
00000130: a991 203c 875a 7b3e 7ac0 733c f034 78bd
00000140: a6d2 fa3c 2827 1e3e 601e c13c 3c51 83bd
00000150: e277 993d bc96 64bd 7920 18be 1152 0ebd
00000160: 8d61 973e 2e2b a8bc 7a9a a9be bb46 a13e
00000170: af79 a7bc 7676 673e 4aeb 76bd e8f4 9d3e
00000180: e440 3abc 46c6 863e f5bb 4dbc 7f57 583e
00000190: 2275 0d3e a38c 1e3e d056 10be 5a94 fb3d
000001a0: 63ea 33bc 0e30 9e3c ff04 78ba a501 20bc
000001b0: 6399 ac39 0559 f43d 3e3d 46ba 9fd6 d1bc
000001c0: fd88 f2bb a3a2 3d3e a2fe f1bd 58ae 383e
000001d0: d9fa 493c 4c41 77bd de1a 323c 3006 39bd
000001e0: c456 00bb 8a4c 62be 0ccc c1bc 089e 71bd
000001f0: fa4a cabc 021c 123d 51e0 073d 9edd 42bd
00000200: ffba 81bc c276 ffbc 3b7e 41bc 5fdb 19bd
00000210: 0fb4 8e3b ba06 bcbd fb29 bfbd 18fe 96bd
00000220: 7b8d d1bc 19ce ecbd e13a e53c c1c0 80bd
00000230: f707 893c 919a e53c 9e85 9abc 9bc2 1abd
00000240: 1778 a33c 1ac4 f8bd 7f2d f13b d6a4 ca3d
00000250: ad71 45be 668f 573e f481 c93d a78c dabd
00000260: 122a 933c fe87 19bd a7ae e0bb 1456 0d3e
00000270: e5c0 b2bd 76e2 12be 272d 84bc a20b 09bd
00000280: c137 f8bd eb77 08be e376 61bd 969f ebbd
00000290: 6ba0 a1bc aba9 74bd a0af 003d 3d34 f9bc
000002a0: 2c35 86bc dab6 203d f16b 893c 4e82 e3bb
000002b0: 8e4f d23c 023b 383e 09eb 7c3c 8acd 4e3e
000002c0: 73d3 943c d523 8cbd 5394 a33b 52d7 34bd
000002d0: 8e77 07bd 2f13 cb3c 35d1 893b 0db4 8dbc
000002e0: 7182 b3bc a7d8 1e3e e998 8f3c f956 143e
000002f0: ece7 913c a97b 8fbe 5d41 1dbd c6ab 96be
00000300: c0e0 c7bc febc 2e3a 487e b5bb fd3b a9bd
00000310: c186 aabd df0a e33d 34ad aa3d 8359 dbbd
00000320: 79d7 983d f6a6 e43d 62cc 16bd 40f8 253d
00000330: 02c5 f13d d8ab a1bd e27f 5f3d 58ff c03c
00000340: cc5d d43d 8d90 e43e 68b1 ba3d 4692 7c3e
00000350: 1bd6 023e 5087 403e f60e b2bc 33b4 ea3d
00000360: 160d 25be 38e0 263e 96aa 063e 8a39 5cbd
00000370: 8b94 a03e 345a 983d 2418 e83c 4448 903e
00000380: dcd8 a63d ebbc 493e f7ed ca3d 1ed9 313e
00000390: 2f87 35ba ca9b 57bc 481d af3c cda5 ffbc
000003a0: 6865 8f3c d4a0 4d3e dc92 75bd a4ce d53d
000003b0: 3aa8 bebc 8a02 40be 82ac 023d 9a11 14be
000003c0: ae2a 4dbc 0ac7 02bd 4689 8a3d 1aed b73c
000003d0: 4edd 56bc df0d 1e3e 22a7 97bc af2e ca3d
000003e0: dc94 a63c 6274 91be 4ba8 863b be09 41bd
000003f0: 2885 033d 9860 c83d cb41 45bc 9028 dc3d
-0.12526913 -0.12482069 0.007868741 -0.101790704 -0.07425112 -0.022608003 -0.016220367 0.008945079
0.045283284 0.14257999 0.09847758 0.112755165 0.10984832 -0.070192344 -0.05876173 0.018005218
-0.122263424 -0.08956178 -0.026193561 -0.065491185 0.233263 -0.12258481 -0.09574931 -0.10983643
-0.054120798 0.15448277 0.41858718 0.03560011 -0.03477633 0.48166034 0.2862627 0.36768082
-0.031608663 0.0010180842 -0.15172799 0.10783498 -0.10601415 -0.19118452 -0.08320553 -0.06217046
-0.05985987 0.030644339 0.046423133 -0.02522959 -0.0028828133 -0.1415419 0.029211622 -0.109729886
-0.018974926 0.015818631 -0.022596728 0.008236162 0.0004695375 0.17499831 -0.02166519 -0.012550129
-0.00054301415 0.021076221 0.106292546 -0.0070421994 -0.06252643 -0.20692499 0.07654498 -0.23542233
0.04132174 0.11750056 0.023019325 0.019467505 -0.2733381 0.27082285 -0.009572612 0.2784864
0.35747585 0.111172326 -0.14089867 0.27494574 0.009800353 0.24546252 0.014877433 -0.06059736
0.030618023 0.15444624 0.023574054 -0.064119786 0.07493569 -0.055807814 -0.14856137 -0.034746233
0.29566613 -0.020528402 -0.3312567 0.31499276 -0.020443765 0.22603783 -0.060282983 0.3085091
-0.01136801 0.26323146 -0.0125570195 0.21127127 0.13814214 0.15483336 -0.14095616 0.12284155
-0.010981175 0.019310024 -0.00094611937 -0.009766017 0.00032920678 0.11931042 -0.00075622264 -0.025615035
-0.007401584 0.18519072 -0.118161455 0.18035257 0.012327873 -0.060365006 0.010870663 -0.045171916
-0.0019582966 -0.2209951 -0.023656867 -0.0589886 -0.024693955 0.03567124 0.03317291 -0.047574632
-0.015836237 -0.031184558 -0.011809881 -0.037562724 0.0043549608 -0.091809705 -0.09334179 -0.07372683
-0.025580158 -0.115627475 0.027982177 -0.06286765 0.01672743 0.028027805 -0.018862542 -0.037783246
0.019954724 -0.121467784 0.00736016 0.09894721 -0.19281645 0.21050796 0.0983924 -0.106713586
0.017964397 -0.037483208 -0.0068567577 0.13802367 -0.08728198 -0.143442 -0.016134812 -0.03345836
-0.12120009 -0.13326995 -0.05504502 -0.11505048 -0.019729814 -0.05973212 0.03141749 -0.030420417
-0.016382776 0.03923688 0.016775103 -0.0069430238 0.0256727 0.1799126 0.015436896 0.20195594
0.018167233 -0.06842772 0.004992047 -0.044150658 -0.033073 0.02478942 0.0042058476 -0.017297769
-0.021912785 0.15512334 0.017528968 0.14486302 0.017810784 -0.28024033 -0.038392413 -0.29427928
-0.024399161 0.0006665735 -0.0055387355 -0.08263395 -0.083264835 0.11086058 0.08333817 -0.107104324
0.07462973 0.11164658 -0.03681601 0.040519953 0.118051544 -0.07894105 0.054565318 0.023559257
0.10369453 0.44641533 0.09115869 0.24665174 0.12776987 0.18801618 -0.02173565 0.114601515
-0.16118273 0.1629647 0.13151011 -0.05376581 0.3136333 0.0743908 0.028331824 0.28180134
0.081468314 0.19700973 0.099086694 0.1736798 -0.0006924746 -0.013159702 0.021376267 -0.03120699
0.017504409 0.20080882 -0.05995451 0.10439804 -0.023273576 -0.18750969 0.031902798 -0.1445984
-0.012522383 -0.0319281 0.06764464 0.022451926 -0.013114287 0.15434979 -0.018512312 0.098721854
0.020334654 -0.28409106 0.0041094176 -0.04712843 0.03210941 0.09784049 -0.012039612 0.10749924

bias f4 [64]
00000000: a4af 91bc 4806 88bd 738c 97bc aeb3 f03d
00000010: 5029 ccbd 592f d23d 53b2 153d 7068 613d
00000020: f6de acbc ad83 5b3b 186b 6e3c 84fa 643d
00000030: 7558 673c 226b 1139 3fc1 fe3c e7b3 8ebc
00000040: 8bd0 de3b ad40 a93d 8de7 473d ea0d 6ebd
00000050: bb99 cdbd e50d 83bd 47e9 dd3c 298d d73b
00000060: 1e3b 70bc c08f 3a3c b42a 52bd 042a 683d
00000070: 6add e0bd 1d3d 3cbd 93a5 1dbc 5356 50bd
00000080: 00ac 99bc f7c4 4a3d 905c 6c3d fb92 36bd
00000090: 2a73 82bc 72cf 84bb f852 833c 49b3 d53c
000000a0: 19ed 7f3d 63cc 1ebc 8a55 08bd 0ef8 aa3d
000000b0: 1dd8 2ebd 75a0 a23b 075d 8d3d 8aa9 063c
000000c0: ecc6 6ebc 5f0f a83d 96a0 fc3b 307b a9bc
000000d0: 134d 373d 420e b83c 639f 93ba 729d efbd
000000e0: 7845 2b39 1e3c 93bd b488 abbb 6b38 c63b
000000f0: 0279 4fbc e633 79bd 9c22 c53c 76f7 7a3d
-0.017783947 -0.06641823 -0.018499589 0.11753021 -0.09968817 0.10262937 0.036547016 0.05503124
-0.02110241 0.0033495233 0.0145519 0.055902973 0.014120211 0.00013868188 0.031098006 -0.017419768
0.0067997626 0.08264289 0.04880481 -0.05811874 -0.100390874 -0.063991345 0.027088774 0.006578107
-0.014662532 0.011386812 -0.051310256 0.056680694 -0.109797314 -0.04595672 -0.0096219955 -0.050863575
-0.018758774 0.049504247 0.057705462 -0.044573765 -0.015924055 -0.0040530497 0.016030774 0.026086466
0.062481973 -0.009692284 -0.0332847 0.08348094 -0.04268657 0.0049629756 0.06902509 0.008219132
-0.014573794 0.08206057 0.007709573 -0.020688623 0.044751238 0.022467736 -0.0011262711 -0.11699952
0.0001633371 -0.07189201 -0.005234802 0.006049206 -0.012663128 -0.06084051 0.024064355 0.061271153

weight f4 [64, 64]
00000000: 43f4 5abe 4885 2c3e 48fa 3dbe 45a8 acbe
00000010: 8c57 da3b 35a3 283d 688f 59bd d1c9 923d
00000020: 733b a73e 17f5 9b3e ec0f c9b8 6c80 1c3e
00000030: e306 963d 966c d2bd f3b1 eabe 8fb7 34bc
00000040: a822 653e 8ea2 7bbd 42a7 0f3c 31a9 28be
00000050: 7c73 4abe 6e78 c03e a997 e83d a896 b13d
00000060: d373 7bbe caab d63d 6bec 60be 4b6e 1b3d
00000070: 111b 4d3e 3651 05bd 3e40 19be 2aa6 76be
00000080: fa87 8abe 8be3 5e3e bdc8 c9bd 5196 243e
00000090: 477a 8d3e eee0 33be 7f3b 4b3e 7ce7 523d
000000a0: a752 9e3e ca49 7cbe c775 583b afb5 1b3e
000000b0: c5a9 d8bd 9d5d 32be 7b30 a03e 340f 573d
000000c0: e83f 8e3d 86e2 c4bb 58a9 b13e 32a5 cd3e
000000d0: 8091 a43e dc83 34be 05b0 f3bd 3581 1e3e
000000e0: 9f7b 933e 4631 91bd 4464 2cbe 8abf eb3d
000000f0: 6655 e13d b74e 5cbe a068 663e 0f01 f4be
00000100: c32a b43d bdd9 15be 7d35 7f3e dda7 9e3e
00000110: 8efa 83bd b1b5 6e3e 3f54 083d 410d 9abe
00000120: bf0b 4bbe ebfd c5bd 73a3 cbbc e1aa 10bc
00000130: f36f 3c3e 2bb2 863e 0a69 d53e ef99 493e
00000140: b5c1 4abe 33b5 6d3e 80a2 4f3e cf10 003e
00000150: 1984 a5bd 7023 4dbe a49e 5ebe 4511 b3be
00000160: b021 3d3e 542b 21be 7c14 2c3d 0f25 2d3e
00000170: 453f 53be d78e 9dbe f452 00be d57f 843e
00000180: e309 8c3e 2dc9 13bc 7c42 ca3e f96f 4abb
00000190: 9d8b 8d3d 6e58 bebd 2d11 c3bd 4e47 cebd
000001a0: 3ce1 acbe c466 913e 979e f639 18be 9f3d
000001b0: 9d25 4c3e 9552 17be 9c40 1ebc e17b 0fbd
000001c0: 82e4 c9bd cb96 473e 9d51 923e fcf1 49be
000001d0: c3ed 033e 9c9d 063e ca78 e3bc 2518 25be
000001e0: 4ac6 0b3e 8815 34be 7c6a ea3c a4d9 e93d
000001f0: a1e4 843d bf22 ea3d 7103 31be 93e4 e1bd
00000200: 1e82 58bd 48ba 89bd 59b3 2f3e 919a ddbd
00000210: 3edd 5b3d cd96 163e 072a acbe 5c66 e7bd
00000220: d3a1 0dbc 4fa1 383e ee47 403d 76f0 f7bd
00000230: b03d 033e 0e63 10be 220a b3bc e49c 30be
00000240: fb12 8d3c 667c 11bd b1ae 313e 0b70 88be
00000250: 828b 143c 3d48 08be 6695 a4be c3ab 49be
00000260: 142c 25be dd39 753e afef 633c f128 f1bd
00000270: 48d1 cfbd 4685 8c3e b37f 4ebe 50a8 81bd
00000280: 8009 d7bd e8bc 0e3e 88b2 ad3e 2a39 7d3d
00000290: 95e4 843e fa39 e93c c833 683d 950f 4f3e
000002a0: 272e 8abe 4aaf 83be e485 c5bd 088a c5bd
000002b0: c512 6f3c 3b14 2a3a c741 57be bb12 cb3d
000002c0: 59d2 223e 393a 37bd aca2 353d ec31 af3b
000002d0: dc55 4b3e bcfd f33d 6a7f f73d dd66 663d
000002e0: cef5 5cbe 4f24 c7be d42f 0a3d 65e9 773e
000002f0: cc68 5d3d 4a02 fcbd 3744 303c d523 fdbd
00000300: f4f9 4e3e 75fa a5bd 731c 89bd 393f aabe
00000310: 1c88 be3d e222 583d 418e 9abe daf6 283d
00000320: 6243 f83d 59db 5c3e d8fc ffbc 54af fabd
00000330: d198 83bd 4f4a 323e 721a c5be 86a6 9fbd
00000340: 42e5 50bd 2f22 3e3e 15ce e0bd e060 493e
00000350: 3313 02be 8d76 213e 1b13 dc3d dbe5 dcbd
00000360: 5fbb deba 6b6d d83d 62f3 1d3d b957 943d
00000370: 0699 523e 1c72 d2be da4e 58be 2b39 543d
00000380: ac44 5fbe 14e9 9b3d 0f0a c23e dfbf ef3d
00000390: fe02 b3be 8e74 9d3d a539 febd 35f4 9f3b
000003a0: 0676 253d 5dc2 e4bd cfe3 03be 9299 b9bc
000003b0: 9347 05bd 64d6 c5be 1f4c 8d3d 89b3 563d
000003c0: 6b3f aa3d 50e2 6f3d a6b6 d2bd d576 013e
000003d0: bb0c 213d a011 28be ef91 073d 3c5a 3abe
000003e0: 2e1a 913e 5a6f 09be f820 5f3d 0799 d43d
000003f0: a95d da3d 985a 553e 3b59 4dbd 9abe 13bf
-0.21382241 0.16847718 -0.18552506 -0.3372213 0.0066632684 0.04117127 -0.05311528 0.071674
0.32662544 0.30460426 -9.5873926e-05 0.15283364 0.07325532 -0.102746174 -0.4583889 -0.011030092
0.22376502 -0.06143432 0.008767905 -0.16470791 -0.19770616 0.3759188 0.11357052 0.086713135
-0.24555902 0.10481985 -0.21965186 0.03794698 0.20029856 -0.032548152 -0.14965913 -0.24086824
-0.27056867 0.21766488 -0.09852741 0.16072966 0.27632353 -0.17566273 0.19846915 0.051490292
0.30922434 -0.24637523 0.0033029185 0.15206026 -0.10579256 -0.17418523 0.31286988 0.052504733
0.06945783 -0.006008449 0.34699512 0.40165097 0.32142258 -0.17628425 -0.118988074 0.15478976
0.28805253 -0.07089476 -0.16835123 0.115111426 0.110026166 -0.21514402 0.22500849 -0.47657058
0.08797219 -0.14633842 0.24922748 0.30987445 -0.06444274 0.23311497 0.03328347 -0.30088237
-0.198287 -0.09667572 -0.024858212 -0.008829803 0.1840208 0.26307806 0.416817 0.19687627
-0.19800456 0.23213653 0.20276833 0.12506412 -0.08081836 -0.2003305 -0.21740204 -0.34974113
0.18469882 -0.15739185 0.042011723 0.16908668 -0.20629604 -0.3077304 -0.12531644 0.25878778
0.27351293 -0.009020132 0.3950385 -0.0030889495 0.06911395 -0.092942104 -0.095247604 -0.10072194
-0.3376559 0.28398716 0.00047038935 0.077999294 0.19936223 -0.14777596 -0.009658959 -0.03503025
-0.098580375 0.19491117 0.2857789 -0.19721216 0.12883668 0.1314606 -0.027767558 -0.16122492
0.1364986 -0.17586339 0.028615229 0.11418465 0.0648892 0.114324085 -0.17286469 -0.11029925
-0.052858464 -0.067249835 0.1715826 -0.10820497 0.05367779 0.14705963 -0.33625814 -0.112988204
-0.008644539 0.18030284 0.046943597 -0.12106411 0.128165 -0.14100286 -0.021855418 -0.17247349
0.017220965 -0.035519026 0.17351796 -0.26647982 0.009066464 -0.13308807 -0.32145232 -0.19694428
-0.16130096 0.23947854 0.0139121255 -0.11775387 -0.10147339 0.2744543 -0.20165901 -0.06330931
-0.10499859 0.1393925 0.3392527 0.061822094 0.25955644 0.028470028 0.056690007 0.20220788
-0.26988336 -0.25719672 -0.09644678 -0.09645468 0.014591877 0.0006488 -0.21021186 0.09915682
0.15900554 -0.04473326 0.04434459 0.0053465273 0.19856972 0.1191363 0.12084849 0.05625044
-0.21578142 -0.3889489 0.03373702 0.24210127 0.05405502 -0.12305124 0.010758451 -0.1236035
0.20212537 -0.081044115 -0.066948794 -0.3325136 0.093033046 0.05276764 -0.30186656 0.04125104
0.12122227 0.2156805 -0.031248495 -0.122404724 -0.06425632 0.17411159 -0.3849674 -0.07795434
-0.050999887 0.18567728 -0.10976807 0.19665861 -0.12702636 0.1576788 0.107458316 -0.10786029
-0.0016993097 0.10567745 0.038562186 0.07243294 0.20566186 -0.41102684 -0.2112383 0.051812332
-0.2180354 0.076128155 0.378983 0.117065184 -0.3496322 0.07688247 -0.124133386 0.0048814067
0.04039576 -0.11169884 -0.12879871 -0.022656236 -0.03253896 -0.3864013 0.068992846 0.05241731
0.08312877 0.058565438 -0.10288744 0.12642987 0.03931878 -0.16412973 0.033098157 -0.18198484
0.28340286 -0.13421384 0.0544748 0.1038075 0.106623955 0.2083534 -0.050133925 -0.5771271

bias f4 [64]
00000000: ab04 e53c f837 213d 9910 3f3e 02f7 c03d
00000010: e7b7 013d 9e52 5f3d 5442 223d af4e 16bd
00000020: 0603 ddbc 2016 b9bd a7c2 373d 6019 ea3d
00000030: 5c85 963d c1b9 193e cb45 033d 3a32 f9bd
00000040: ad4f 023e 9a71 fcbc 56a4 95bd 0aac cebd
00000050: bd73 aa3c b2eb 1bbe ac2f 7cbd 6ded 41be
00000060: 223b 0ebe 52f3 49bd 26f9 24bb dc47 d1bd
00000070: eb83 dcbd 0664 29bc d352 23be e265 ef3d
00000080: 6b5e 59bd 9f63 7b3d 2678 fdbc cc3f 873c
00000090: 7bb4 113e c58a 10be 8f31 7d3a b564 cbbd
000000a0: 7bbe 3e3e bfee b33c bcf4 d23c 5fc0 803c
000000b0: 37cd 2c3d 55c6 a2bc a33e df3c d91a 8ebd
000000c0: f9a5 243d 46b9 32bd a928 7b3e 3831 263d
000000d0: 566f 093e df74 86be ecf1 1c3e 3a94 d23d
000000e0: 6f13 5fbd e7aa f03b b8ac a93d a1c2 1ebd
000000f0: cb88 223e 41ab 8cbd 71f5 1d3e de26 953d
0.027956327 0.039360017 0.18658675 0.09422113 0.031669524 0.05452215 0.039614037 -0.036696132
-0.02697898 -0.09037423 0.04486337 0.11430621 0.07349655 0.15012266 0.03204898 -0.12167783
0.12725706 -0.030815888 -0.07306735 -0.100914076 0.020807141 -0.1522663 -0.0615689 -0.18938227
-0.13889745 -0.049304314 -0.0025172918 -0.10218784 -0.10767349 -0.010338789 -0.15949564 0.116893545
-0.05306856 0.061374303 -0.03094108 0.016509913 0.14229004 -0.14115436 0.0009658569 -0.09931318
0.1862735 0.021964429 0.025751464 0.01571673 0.042187896 -0.019869963 0.027251547 -0.069387145
0.040197346 -0.04363372 0.2452723 0.040574282 0.13421378 -0.2626104 0.15326661 0.10282178
-0.054461893 0.007344592 0.082848966 -0.03875983 0.15872495 -0.068686016 0.1542566 0.07282804

weight f4 [7, 64]
00000000: 69c7 f83d 392f 163e ecee 5abd 1bcd 513d
00000010: 953c 513e cd4e d6be 95c8 17be e3c1 963d
00000020: c7f2 d9be e495 86be 97de 5bbe 9c2e 143e
00000030: 5b26 103e 51db 933e a338 eebd bfbc f53d
00000040: 9b2d 733e f58b 5d3e b238 003f 9e24 e9bc
00000050: 1705 e33d 9f34 b6be a521 093d 8a7f cabd
00000060: 50e1 cd3e ee24 b33e 7c9f 293f ad33 893c
00000070: 896a a9bd c0ef 8abe 722c 643e 4762 5a3e
00000080: 3a9b 99be 2dd1 afbe 6365 8ebe 7010 ddbc
00000090: 206e 753e 0f71 73be 38e7 03be f517 47be
000000a0: ef9e b0bd e02a c5be ab2f cdbe 73f7 49be
000000b0: 733d 0abe e942 9bbe 7d76 5fbd fb3b 98be
000000c0: b399 173f 8ff4 6c3e b41c a53e f518 acbe
000000d0: 093b 0e3c 2727 afbe bb27 afbd 38bc 6f3d
000000e0: 62c3 d5be 9221 0f3e 28bb 5fbe 3b68 1f3e
000000f0: fff8 3fbb ee6e 7c3e 7497 5f3e ecec 10bf
00000100: 4f14 80bd a4d5 b1bc dc69 223e d9e0 cf3d
00000110: 1135 a43d acff bfbe ef55 8c3e b99a 86be
00000120: 70d8 debd 827b e9bc 9020 d13e ce79 19bc
00000130: 3440 453e 8561 213e 24aa 403e 7e44 b8bd
00000140: f670 74be 73e8 c4be 08ff d1be a611 efbd
00000150: e021 5f3e a842 9fbe 9ccd 8e3d 46ea 893e
00000160: 24d5 35bd e63e 54be 1e02 46be b97d 693e
00000170: e3e3 abbd 5846 89be 2866 01be b9c2 db3e
00000180: 5eb9 8a3d a156 333e 4d29 d6be 729a 91be
00000190: 5c64 133e 16a8 323e 310d 0d3f 2daf bb3e
000001a0: 403b 543e d461 45be 8024 5b3e f234 cabe
000001b0: c130 7f3d 7e80 9abd 82e6 a63e dc52 84be
000001c0: 8705 83bd 9754 6e3c 49f4 88bc 1f72 933e
000001d0: 60ff 62be d780 86bd 62e3 84bd 6188 df3e
000001e0: 95d2 813e ce37 2cbd 9101 03bf b0d9 45be
000001f0: d94d 8e3c ecc2 b5bd cdf8 8e3d 8a00 213e
00000200: c450 2ebe 8537 bd3e f336 d33e 35ca 823e
00000210: 1326 303e 0959 1f3e c319 d83e 1012 7e3e
00000220: d9d0 74be 30ff adbc e1d6 293e 4d18 d8bd
00000230: e8cb 4c3d ee55 87be 4dc0 f7be 2698 a2be
00000240: b9c5 e03d bb0e d5bd 7593 ab3c ff25 92bd
00000250: f43c 283e 0fad 82be 3776 373f f97d 173d
00000260: 69be 03bf b773 41bb 513e 433c b2b4 8dbe
00000270: 9229 9dbe 97c6 bbbc aa7e b63c c60f febd
00000280: 0be6 dabe 127e 163e e6c3 f3be c328 96bd
00000290: af7c 66be 98a8 923d 7f20 ffbe e18b 23bd
000002a0: bba5 f83e e03b 8ebe a3d8 a7be 19ef 033f
000002b0: 24ca 09be 2b7e 35bc 4280 b8bd 1a4f b1be
000002c0: c857 70be 6427 26bd fa23 1d3d 0de7 48be
000002d0: b863 cf3d e93b a0be 0f1f 353e c166 b63e
000002e0: 13d8 eebe 7f8d ec3e 609f a6be e04c 1e3e
000002f0: 90bd 8f3d 232a 3abc 11ba 953e 4b59 603e
00000300: 8dc2 0cbf 2010 473e 1d61 a1bd e48e 89be
00000310: 7ff3 2e3d 21f0 083f 5d30 403e 860d e5bd
00000320: ee50 bd3d 54d8 8fbe 2034 20bd 5f0b 933d
00000330: 7b99 08bf 9105 0dbf a291 9f3e 9767 acbe
00000340: 4ce5 2c3e abe2 803e b1bf 81bd 328a ff3e
00000350: 1169 0ebe e5d8 af3d 4233 bebd e9cc b23d
00000360: aa60 053e e13d 93bc a5f9 d3be 7dbe f63c
00000370: e3fa 2e3d a6c3 c83e c47e c6be 304d f2be
00000380: 5a8a 823e 529b 0abe d09f 003e 79cc cc3c
00000390: d08e b53d 2936 e5bd e783 1c3e f1cd 893e
000003a0: d894 493e b102 3b3e 6590 93bd 5cbc f43e
000003b0: 002d 6b3e ef8b 2fbe 3a1c 9a3e 78e0 813d
000003c0: af75 033e 12d9 35bf f15b 99be 89e9 373c
000003d0: dad8 883d 2731 103f b647 753e ca2b 2d3e
000003e0: b109 e03e f385 2ebe 8730 023d 2bac f8bd
000003f0: 9cdf d1be 701c a73e 8cc5 ddbd 6c89 73be
0.121474095 0.14666452 -0.05345051 0.051220994 0.20433266 -0.41856995 -0.1482261 0.073612
-0.42568037 -0.26286232 -0.2147163 0.14470905 0.14077131 0.28878263 -0.11631896 0.11998891
0.23747866 0.2163542 0.5008651 -0.028459843 0.11084955 -0.35587022 0.03347935 -0.098876074
0.40210962 0.34989113 0.6625898 0.016748274 -0.08272273 -0.2713604 0.2228258 0.21326552
-0.3000124 -0.34339276 -0.27811727 -0.026985377 0.2396779 -0.23773597 -0.12881172 -0.19442733
-0.08624064 -0.38509274 -0.4007543 -0.197233 -0.13500004 -0.30324486 -0.05455636 -0.2973326
0.592189 0.23140167 0.3224846 -0.3361279 0.008681067 -0.34209558 -0.085525 0.05852911
-0.41750628 0.1397765 -0.21848738 0.15567105 -0.00292927 0.24651691 0.21835119 -0.56611514
-0.062538736 -0.021708317 0.15860695 0.10150308 0.08017934 -0.3749975 0.27409312 -0.2628992
-0.10881126 -0.028501276 0.40845156 -0.009367419 0.19262773 0.15759857 0.18814903 -0.08997439
-0.23871216 -0.38458595 -0.41014886 -0.11673288 0.21790266 -0.31105542 0.069728106 0.2693655
-0.04439272 -0.20727119 -0.19336745 0.22801866 -0.08393075 -0.2681148 -0.12636626 0.42922
0.06773637 0.17513515 -0.41828385 -0.28438145 0.14393753 0.17446932 0.55098253 0.36657086
0.20725727 -0.192756 0.21400642 -0.3949352 0.062302355 -0.07544039 0.32597739 -0.25844467
-0.06397539 0.014546535 -0.016718047 0.28798005 -0.2216773 -0.06567543 -0.06488682 0.43658736
0.25355974 -0.042045407 -0.51174265 -0.19321322 0.017371105 -0.08875069 0.06981049 0.15722862
-0.17022997 0.3695642 0.4125286 0.25544897 0.17202024 0.15561308 0.42207155 0.24811578
-0.23907794 -0.021239847 0.16585876 -0.1055151 0.049999148 -0.26432747 -0.483889 -0.31756705
0.109752126 -0.104032 0.020944336 -0.071361534 0.16429502 -0.25522658 0.71664757 0.03698537
-0.5146242 -0.0029518434 0.011916713 -0.27676922 -0.30695778 -0.022921843 0.022277195 -0.12405352
-0.42753634 0.1469653 -0.47610396 -0.073319934 -0.225085 0.07161063 -0.4982948 -0.03992832
0.48563942 -0.27780056 -0.32782468 0.5153671 -0.13456017 -0.011077444 -0.09008838 -0.34630662
-0.23470986 -0.04056491 0.038364388 -0.19619389 0.10126442 -0.31295708 0.17687629 0.3562527
-0.46649227 0.46201703 -0.32543468 0.15459013 0.07018578 -0.011362585 0.2924352 0.21909063
-0.5498436 0.19439745 -0.07879851 -0.2686683 0.042712685 0.5349141 0.18768449 -0.1118422
0.09243952 -0.28094733 -0.03911221 0.07179903 -0.5335919 -0.5508662 0.31165797 -0.33672783
0.16884345 0.25172934 -0.0633539 0.49910122 -0.13907267 0.08586291 -0.092871204 0.0873049
0.13025156 -0.017973842 -0.414014 0.030120129 0.042719733 0.39211768 -0.3876859 -0.47324514
0.2549618 -0.13535812 0.12560964 0.024999844 0.0886513 -0.11191971 0.15284692 0.26914933
0.19685686 0.18262745 -0.072052754 0.47799957 0.22966385 -0.17143224 0.3009966 0.06341642
0.12837861 -0.7103435 -0.29952958 0.011225113 0.06681986 0.56325 0.23953137 0.16911235
0.43757394 -0.17043285 0.03178456 -0.121422134 -0.40990913 0.32638884 -0.10828695 -0.23782891

bias f4 [7]
00000000: c0b6 ec3d 3c3b 733e d475 ac3c 6f74 afbd
00000010: c40f 453d f3ea a13e 75ae 55bc
0.11558294 0.23753065 0.021052279 -0.0856713 0.04811074 0.31624565 -0.013042082

weight f4 [64, 908]
00000000: 3bca 1abe e590 3bbe 0624 263e f3b2 20be
00000010: 995b 2c3d bb33 11be bbcf 3e3e 7b4a 13be
00000020: 574c 6a3e 4177 41be 0b2f 173f ef65 55be
00000030: cc64 cc3d 8b2a a4be da5e cdbe e74b 14be
00000040: 77bc 083f d8fb 07be 97a6 0bbb 8930 85bd
00000050: 1ba7 583e 6619 c63d ce3a a43d b923 4c3e
00000060: 39f4 993e 54fa 0d3e 7a9e 53be 2162 a33e
00000070: 8516 cfbe bc85 363f 80ef f13e 6a67 9a3e
00000080: 55ec bf3e f8f8 673e cee5 d13e f3d2 3a3e
00000090: 24ea 04be 1599 1d3d 6682 743d 1d86 a3be
000000a0: 2e45 bfbd 23a4 ab3b 0748 3a3d 4b41 c6be
000000b0: b3e3 db3b e0ed 003d eb65 ebbc d01c 033e
000000c0: 5e3e d1bc 8096 d83d 58c1 bdbc 14b5 9b3d
000000d0: 9fd3 8d3c b655 b93d 4afc dbbc 5831 8fbd
000000e0: f9ec 963c b200 e33d 85b9 22ba a6f7 f63d
000000f0: a961 8dbb f0ad 51be 4080 4c3d 58ec 53be
00000100: ff35 fdbc 928b f63c 705b 1ebc 8393 8f3e
00000110: 7938 313c aab2 0f3e 841c cabc 12a3 d53e
00000120: e107 d53d c48f 04be 1ed0 b1bc 6c0a a3be
00000130: 669d ba3c cd8e 74bd c869 c63c ed79 81bd
00000140: fa4f af3c a0a1 a63c aca1 f63c f7bd 40bd
00000150: 3fb8 353f 1a1e bf3e ac18 a1bd 9624 d93e
00000160: c55a a6be 282d 64bd a4cc 62be 6994 aabe
00000170: 185f 4bbb 9e07 eb3d 9423 cabd f9a8 eabe
00000180: 1f24 96be 5005 d5be 8bcc edbe 7448 17be
00000190: 4611 803d 921d d3bd 022e 093f 1a68 063f
000001a0: a018 74bc 3b30 fbbd bbff fe3c eb2c 7fbe
000001b0: 92f3 803b 83e7 88be 15b0 2dbe 0fa3 a53d
000001c0: 4263 b1bc d521 d33d 2353 ad3d dd7a 1bbe
000001d0: 67fb f4bc 5656 c23d d2ca 673c 646a d23d
000001e0: ba6b 073d ebba 86be 4131 eebb 6ae1 86bd
000001f0: 8ac7 c1bc dd16 253e e3ef e73c d9c3 97bd
00000200: 7008 6d3b 9cbb aabe e916 843c 9835 bbbe
00000210: 05bf 4e3b 412a 10be 83cd af3d 5b05 a5be
00000220: 57c8 50bc 6881 2c3e b8b6 c03b 30b3 8cbd
00000230: 8348 e23e f602 dc3e 6ff0 f1bb 9087 dd3e
00000240: 81df aebf bf3c be3d 4a04 b13e 135e 14be
00000250: 7f03 41be 9de0 e3bc 13b3 25be e262 dfbd
00000260: 795f 883e e36f 9fbe 03f7 66bc 4392 64bd
00000270: 8e23 5abc a695 523d 276b 3f3b d774 85bd
00000280: f731 b93c 0060 333e a3bc 083e 4bae 473e
00000290: 9658 2ebc c215 d73e c050 8ebc b15c cebc
000002a0: 51e8 e1bc 22f0 92be 4f5e 52be 0822 9f3d
000002b0: f2ed 003c ef47 633d 69c4 01bc ffcf bf3d
000002c0: 7559 44bc 49ed 1bbe c7e3 f6bc e557 cdbc
000002d0: 51ca 693b c71f b7be baba 203c e673 05bd
000002e0: 4d7c d53b e121 873e 6826 b33c 292b 833e
000002f0: bf6d 23bc 6727 633e 3e77 373e 337d 453e
00000300: d0ca f8bc 16ca da3d c9cc 6cbe 6d2f 1b3e
00000310: 9b90 58bc 36d5 f2bd 7558 4abe 4b44 bbbd
00000320: 99a8 4bbe 5284 43be 9e3c 17be 5a01 3cbe
00000330: 521d cd3e 6b3e 92be a2ed ba3e 9929 7e3f
00000340: f5a1 7fbe ae8f c43e fce2 003f 98a3 1dbd
00000350: 34c2 0c3f 81b9 213e e0b1 ebbe 0c5b d43e
00000360: 6c13 df3e 72a2 52be c8cd 94bd 3b7e 23be
00000370: c1d3 1dbe 25f8 04bf ed4d 2abf 55fa 27be
00000380: 80dc 4b3f 7fb2 8abd 4895 723f f16b bcbe
00000390: fd33 e53c c8be 8cbe 72de c73c 1eed 1a3e
000003a0: 3c7e aa3c 5c97 dcbc b671 e03d fc9d 93be
000003b0: da87 c73c ad68 88be 6484 89bd 7738 97be
000003c0: 59e1 fa3b d3c8 9dbe f093 6b3d 5d19 97be
000003d0: 81f6 ffbc 0ec3 3fbe aa0d 93bc d227 0ebe
000003e0: 7b1d a2bc ea3b 673e c6c7 da3c e45a a33e
000003f0: 7070 003d fbd1 203e c7e6 073d 39a9 e03d
-0.15116207 -0.18316992 0.1622468 -0.15693264 0.04207954 -0.1417989 0.1863393 -0.14383881
0.22880684 -0.18893148 0.59056157 -0.20839666 0.09980163 -0.32063708 -0.40111428 -0.1448208
0.53412575 -0.13279665 -0.0021309012 -0.06503398 0.21157496 0.09672813 0.080190286 0.19935502
0.3006914 0.13865024 -0.20665923 0.31910804 -0.4044687 0.7129781 0.47253036 0.30157024
0.37484995 0.22653568 0.4099564 0.18244533 -0.12979943 0.03847607 0.05969467 -0.31938258
-0.09339367 0.0052380725 0.045478847 -0.3872169 0.0067104935 0.031476855 -0.028735122 0.1280396
-0.025542434 0.105755806 -0.023163483 0.07602897 0.017312823 0.09049551 -0.0268537 -0.069918334
0.018423544 0.11084117 -0.0006207454 0.12058954 -0.0043146205 -0.20476508 0.049926996 -0.20695627
-0.030909536 0.03009585 -0.009665355 0.2804223 0.010816687 0.14032999 -0.0246718 0.41725975
0.104018934 -0.12945467 -0.021705683 -0.3184389 0.022780132 -0.059706498 0.024220362 -0.063220836
0.02140044 0.02034074 0.030106388 -0.047056165 0.7098426 0.37327653 -0.07866034 0.42410725
-0.32491127 -0.055707127 -0.22148377 -0.33316353 -0.0031032022 0.11476062 -0.09870067 -0.4583204
-0.29324433 -0.41605616 -0.46445116 -0.14773732 0.06253295 -0.103083745 0.5358583 0.52502596
-0.014898449 -0.122650586 0.031127801 -0.24919479 0.003935286 -0.2673913 -0.16961701 0.080877416
-0.021653775 0.10309187 0.08463123 -0.15183587 -0.029905034 0.094891235 0.014147477 0.10274199
0.03306172 -0.26314482 -0.007269055 -0.06585963 -0.023654718 0.16122003 0.02831263 -0.07410402
0.003616836 -0.3334626 0.016124206 -0.36564326 0.0031546962 -0.14078619 0.0858412 -0.32230648
-0.012743077 0.1684624 0.005881157 -0.06870115 0.44195947 0.4297101 -0.0073833982 0.43267488
-1.3661958 0.0928893 0.34573585 -0.14489011 -0.1884899 -0.027817065 -0.16181593 -0.10907532
0.2663534 -0.3114005 -0.014096978 -0.05580355 -0.013314141 0.051412247 0.0029208155 -0.06516426
0.022606833 0.1751709 0.13353209 0.19500081 -0.010641238 0.42008787 -0.017372489 -0.025190683
-0.027576597 -0.28698832 -0.20543788 0.07770163 0.007869231 0.055488523 -0.007920363 0.09365844
-0.011984219 -0.15227236 -0.03013791 -0.025066325 0.0035673568 -0.35766432 0.009810144 -0.032581232
0.006515062 0.26393035 0.0218689 0.25618866 -0.009974896 0.22183 0.17916581 0.19286041
-0.030370146 0.10683076 -0.23124994 0.1515481 -0.01321807 -0.11857073 -0.19760306 -0.09143885
-0.19888534 -0.19093445 -0.14769217 -0.1835989 0.40061432 -0.28563246 0.36509424 0.99282223
-0.24964125 0.3839087 0.5034635 -0.038486093 0.5498383 0.1579342 -0.46034145 0.41475713
0.43569505 -0.2056978 -0.07265812 -0.15966122 -0.15412809 -0.5194114 -0.66525155 -0.16404088
0.7963333 -0.06772327 0.94759035 -0.36801103 0.027978892 -0.27489305 0.024398062 0.15129516
0.020812146 -0.026927643 0.10959189 -0.2883147 0.024356771 -0.2664236 -0.06714705 -0.29535267
0.007656258 -0.3081728 0.05751413 -0.29511538 -0.031245472 -0.18726751 -0.017950851 -0.13882378
-0.019789448 0.22581449 0.026706588 0.31905282 0.03135723 0.15705101 0.03317907 0.10969777

bias f4 [64]
00000000: 8921 34bd 3ac5 a7be 55c6 cdbd 8c80 673e
00000010: 773e 9b3e 67af c5bc e5a9 c2bd ca44 42bd
00000020: 1633 93be c0d2 64be bfca a9be f9ec 42be
00000030: 11c4 90be 8f92 66be dd9d 7ebd 8749 e5bd
00000040: 1386 8cbc a166 463d e38b 55be 2e8d 5bbe
00000050: 4bfe b63d 0e80 5b3d b9bb 37be 90fe 13be
00000060: a4bf c4bd ad04 803d 9520 88bd ae1a 98bb
00000070: ab63 1f3e 52ae b9bd 44e4 7abe 4571 58be
00000080: 5549 15be b231 283e 4822 8abe 0648 1b3e
00000090: 01c3 903d 2550 ea3c d12b 1f3e bde0 303c
000000a0: 7b40 983e 4e30 81bd 13ad 57bc 8eca 6cbe
000000b0: 59d2 823d 0f85 a13e 90e3 8f3e 12ec 6abd
000000c0: 3c66 41be 8989 f3bd 2af8 853e 743f 223e
000000d0: 01fa 8c3e f18e 18bc 8da6 43be 8053 6a3e
000000e0: 09bb afbd a2c7 153e 1ea9 663e 6f74 143e
000000f0: 2597 9dbe 372e 7b3e f9e0 5f3e 6c1d ab3d
-0.043977294 -0.3276766 -0.100475945 0.2260763 0.30321094 -0.02413149 -0.09505061 -0.047428884
-0.28749913 -0.2234602 -0.33162495 -0.1903571 -0.28274587 -0.22516845 -0.06216227 -0.11195665
-0.017153775 0.04843772 -0.20854144 -0.21440575 0.08935221 0.05358892 -0.17942704 -0.14452577
-0.09606865 0.06250892 -0.066468395 -0.0046418523 0.15565364 -0.09066452 -0.24501139 -0.21136959
-0.14578755 0.16425207 -0.2697928 0.15164194 0.07068444 0.028602669 0.15544058 0.010795769
0.29736695 -0.063080415 -0.013163823 -0.23124143 0.06387777 0.31546828 0.28103304 -0.05735404
-0.18886656 -0.11891467 0.26165897 0.15844518 0.27534488 -0.009311424 -0.19106503 0.22883415
-0.08580596 0.14626935 0.2252545 0.14497541 -0.30779377 0.24529348 0.21863164 0.08355221

weight f4 [64, 64]
00000000: 12d1 393f 362e 82bc fef0 7d3d 7713 f53d
00000010: dbdb 2abe 9b59 7e3e 76e6 3b3e 5edb b13e
00000020: eec0 3c3e 60dd 91bd eea0 e53d 1621 24be
00000030: 3325 af3d cbbb 54be 2417 353e 9ba8 e53d
00000040: 0cfd 5a3e 6322 74be 6edb d9bd c3ba efbd
00000050: a31c fbbe c13c 5e3f d6bc d73d 02ef 8f3d
00000060: 1664 36be 8475 bbbe af87 d13e 4478 013f
00000070: 7911 9fbd 0b62 c7bd 0759 c7bd fcb0 5b3c
00000080: ae70 843e ce6e c43e 76c4 8bbe ed26 22be
00000090: a8bf 6cbd f29d ddbe 7c4b bebe ddb4 07be
000000a0: 7220 ebbd 24dd 9d3e 7cd9 edbe bef8 81bd
000000b0: db0e 923e 5124 cc3c cd81 103e 3e75 14bf
000000c0: abc2 1a3c 1a29 213e 8873 b2be c3cd 50bd
000000d0: 6438 5cbe a6e2 00be 53c9 6fbd 5cf1 733e
000000e0: 4ebb a03e acfc 09bb 8581 d0bc dbc7 2fbd
000000f0: 3b4b 523e 0867 8d3e 9a66 063d 60b1 fabe
00000100: b414 5d3e 94da 36be 9115 ae3e fcc5 493e
00000110: f6a5 10be 3228 30be 6836 933e dc35 cebd
00000120: f9ab e5bd 099d d83d 66ed 5cbe 1ae9 42be
00000130: 5d11 ca3e 5558 453f 8655 913e 0c1c d3bd
00000140: 09dc 133e f22c 7cbb 2f3e a4be f509 3cbd
00000150: 9054 0fbf b466 02be 3b3a 32bd 153b 013f
00000160: 6603 34be a670 debe 1439 043f fab8 4c3e
00000170: 9c07 ddbe a184 0c3f 17da 9d3e fa2d f93d
00000180: 1d38 e53e 740b c03d 51fb d1be 5cc8 e0be
00000190: b0aa 9e3d 76a0 9ebd 36d1 e43d ea25 9e3e
000001a0: 0c35 15be 6d2a 30be eef8 6fbe d075 c7bd
000001b0: 27b6 103d 47d6 413e 71f3 e9be c54f b9bb
000001c0: a652 1ebe e7aa 103f 2a72 47be 572f 123f
000001d0: 8c0d 0cbf 4ac4 d93e 8bb4 06bd 3248 a2be
000001e0: 303e 4b3e 0459 cfbe 1547 f1b8 d31e 05ba
000001f0: 4287 f6bc 87e8 8239 575e b13e f5fb 03bf
00000200: 1355 4fbe e00e b03c 5ac6 b7bd 6090 80bd
00000210: 22a7 263e 7dbb 01be 7758 b8be 9412 bebd
00000220: cd37 96be f97f eebd 7552 c13d 897a f3be
00000230: 2b0d debe b8a1 e5be e6d5 463d 9383 37bd
00000240: 113d 6fbe 90b4 ed3d dc6c 12be e3a1 a9be
00000250: b664 a73e dca6 603f fba4 04be c137 aebe
00000260: a433 afbd d955 a83e b7a9 94bd cd33 d13e
00000270: d014 a8be b8fa e1bd 89e4 52be 5007 edbd
00000280: f8b1 6cbd e585 8c3e cd40 03be 6e17 cd3e
00000290: 6b77 8dbe 89e8 083e a18c 30bc 8bc4 523e
000002a0: a529 733e 5c34 2ebe 5483 23bd 43c1 703e
000002b0: 2997 5b3c fb3c 283e 4652 573d a4d3 0e3e
000002c0: 23ff 1ebe f2f9 9dbe 75f2 1fbe c443 4d3b
000002d0: 4b7e 5a3e 6e7b 43bf d7f2 04bc 45ab 1b3e
000002e0: a786 5abe 1b19 ea3e cdcd 8a3e 0312 0a3f
000002f0: 042b 0abf f669 6b3e ef1d 08be 712a 1f3f
00000300: 712d 143f d831 863e 246b 7a3e e27d 2fbe
00000310: 9373 0abf 6c4f 4b3c 0f6e 6bbd 4a66 f4be
00000320: bf90 1c3e eef4 1b3f 2473 263e 4e31 023f
00000330: 8deb 283e 9505 cfbe 3331 0abd d521 5b3e
00000340: 6d13 773e d7d1 6b3d df7d 083f a9d7 ae3e
00000350: 9e96 143f ff4c b9be a2e0 963e 3663 353d
00000360: b99e 0d3e edb6 b6be ace7 36be 869b b6bd
00000370: 9fd7 48be 5ff4 86be ca35 af3e 6c7f 923e
00000380: 520d 833e 5f86 aebe 0f04 d73e 8e94 0c3f
00000390: c76c c23e 1cc8 723d 9fb3 103f 778d f2ba
000003a0: 922a 77be 144f e1bc bd1e 113f d7bf 113f
000003b0: a4f2 543e 6637 0abf 8e24 88be 46fb 82be
000003c0: a637 c23e f2eb dbbd a1de 01bf 2624 2fbf
000003d0: 1f14 f8be 828b b33d 4325 c93e c018 f6bd
000003e0: 2c51 1ebe cc8f 27be aae2 07bf d9c8 ddbe
000003f0: 2738 473e 1fc2 22bf 52fb 7bbf 2c34 cdbc
0.7258464 -0.015891176 0.061997406 0.11966603 -0.1668543 0.2483887 0.18349633 0.34737676
0.18432972 -0.07122302 0.112123355 -0.16028246 0.08552017 -0.20774762 0.17684609 0.112137996
0.21385592 -0.23841242 -0.10637556 -0.11705544 -0.49045286 0.86811453 0.105340645 0.07028009
-0.17811617 -0.36613095 0.4092383 0.50574136 -0.077670045 -0.09735497 -0.097337775 0.013408896
0.25867218 0.38365787 -0.27298325 -0.15835162 -0.057799965 -0.43284565 -0.37166965 -0.13252588
-0.11480798 0.3083278 -0.4645499 -0.06346272 0.2852696 0.02491966 0.14112015 -0.579914
0.0094458265 0.15738335 -0.34853768 -0.05097748 -0.21505886 -0.1258646 -0.058541607 0.2382254
0.31392902 -0.0021055145 -0.025452385 -0.042915206 0.2053651 0.2761767 0.032812692 -0.4896345
0.21589929 -0.17856818 0.3400083 0.19704431 -0.14125809 -0.17202833 0.28752446 -0.100688666
-0.11214442 0.10576827 -0.21574935 -0.19034234 0.39466372 0.7708791 0.28385562 -0.10308084
0.14439406 -0.0038478938 -0.32078692 -0.045907933 -0.5598841 -0.1273449 -0.043512564 0.5048078
-0.17579421 -0.4344532 0.51649594 0.19992438 -0.43169868 0.54889876 0.30830452 0.121669725
0.44769374 0.093771845 -0.41012052 -0.43902862 0.077474 -0.07745449 0.11172716 0.308883
-0.14571017 -0.17203684 -0.23434803 -0.09739268 0.035329964 0.18929397 -0.45693544 -0.005655261
-0.15461215 0.56510776 -0.19477144 0.57103485 -0.5470817 0.4253257 -0.032887023 -0.31695706
0.19847941 -0.404976 -0.000115050156 -0.00050781405 -0.030093793 0.0002496878 0.34642288 -0.5155633
-0.20247297 0.021491468 -0.089733794 -0.06277537 0.16274694 -0.12669177 -0.36004993 -0.09280887
-0.29339448 -0.116455026 0.094395556 -0.47554424 -0.4336942 -0.44849944 0.048543833 -0.044803213
-0.23363139 0.11606705 -0.14299339 -0.33131322 0.32694024 0.8775461 -0.1295356 -0.34026912
-0.085547715 0.32877997 -0.07258933 0.40859833 -0.3282838 -0.11034149 -0.20594992 -0.115736604
-0.05778691 0.27445903 -0.12817688 0.40056938 -0.2763017 0.13369955 -0.010775716 0.20582788
0.23746355 -0.17012161 -0.039920166 0.23511223 0.013402739 0.16429512 0.052568696 0.13947922
-0.15527014 -0.30854756 -0.15619834 0.003132091 0.2133724 -0.76360214 -0.008114538 0.15202053
-0.21340428 0.4572228 0.2711014 0.53933734 -0.53971887 0.2298964 -0.13292669 0.62174135
0.5788184 0.26209903 0.24454933 -0.17137864 -0.540826 0.012409072 -0.057478007 -0.4773429
0.15289591 0.6092061 0.1625486 0.50856483 0.16496105 -0.40433946 -0.033738326 0.21399625
0.24128504 0.057573166 0.53317064 0.3414891 0.58042324 -0.36191556 0.29468256 0.044284068
0.13830079 -0.35686436 -0.17861813 -0.089163825 -0.19613503 -0.26358315 0.34220725 0.2861284
0.255961 -0.34086892 0.41995284 0.54914176 0.37973616 0.05927287 0.5652408 -0.0018505295
-0.24137333 -0.027503528 0.5668753 0.5693335 0.20795685 -0.5399078 -0.2659039 -0.2558233
0.3793308 -0.10738362 -0.5073033 -0.68414533 -0.4845285 0.087668434 0.3928624 -0.120164394
-0.15460652 -0.16363448 -0.53080237 -0.43317297 0.19455014 -0.63577455 -0.9843036 -0.025049292

bias f4 [64]
00000000: f695 9e3d 42c0 46bb 6bdb 2b3e e184 bdbe
00000010: 52bb c4bd 62ea 973e 78f1 343d 3667 7ebc
00000020: e4f9 3dbe 73f9 1dbe ff43 9fbd c9bb de3d
00000030: f699 0bbe b5ee 30be d05d 2bbe a372 b6bd
00000040: 5c38 65be f621 373e c564 0f3e 9645 17be
00000050: e934 163e 2138 97bb 23fd b23e 4a63 b4bb
00000060: 779e 61bd 6530 87be 68c6 283d e77c aabd
00000070: 8428 e23d 1244 6dbb 572d 65bd 5954 2d3e
00000080: 3a14 8d3d 9927 1a3e 9dc8 723e 1ac3 ecbd
00000090: 5f14 cbbd 957e 1bbe 31ce 1fbc f2bc 11bb
000000a0: 4008 983d c400 663e 228a f53c 04ce 623d
000000b0: 16b6 953d c70e 42bd 1bcc 97be abca 11bd
000000c0: c87c 243e f737 b3bc 4a36 09be 226d 083e
000000d0: 03c2 29be 03f0 ccbd e052 c8bc a195 4e3e
000000e0: 4ad5 083d 23cc 37be dcdb 333c 8412 96be
000000f0: 7db7 9a3e 231c 68be 80af cf3d 17e4 ae3d
0.077434465 -0.0030326997 0.1678292 -0.3701544 -0.09606041 0.29671007 0.044175595 -0.015527537
-0.18552357 -0.15427189 -0.07776641 0.10875661 -0.1363295 -0.1727856 -0.16735005 -0.08908584
-0.2238478 0.17884049 0.14003284 -0.14772639 0.14668621 -0.0046148454 0.34958753 -0.0055050002
-0.055082764 -0.2640411 0.04120484 -0.083246045 0.11042884 -0.0036203903 -0.055951443 0.16926707
0.068886235 0.15054168 0.2370934 -0.1156065 -0.09915995 -0.15185006 -0.00975375 -0.0022237864
0.074234486 0.2246123 0.029973093 0.055372253 0.07310121 -0.047377374 -0.29647908 -0.03559367
0.16063225 -0.021877272 -0.13399616 0.13322881 -0.16577916 -0.10006716 -0.02445358 0.20174266
0.033406533 -0.17948966 0.0109777115 -0.29311 0.30218115 -0.22666983 0.10140896 0.085395984

weight f4 [1, 64]
00000000: 765e 103f 5fba c33d 52b7 803d 290f 94bd
00000010: 3d19 1d3e d3ed 463e 5865 a13e 9c0e fe3e
00000020: 12e3 0dbc 30ef a0bd eb45 a1bd 9c64 c73d
00000030: 7851 edbe 44fb 48be 49ec 093d fd03 2b3e
00000040: 9b8b d93d 824b f13e 6277 893e e3b3 363f
00000050: e06e 9a3d 4395 363c 59a5 853e 4a4c 00be
00000060: 3b27 5dbf 9a42 12be 0468 08bf d798 4dbd
00000070: bac5 8d3e 10c6 fbbe 0022 933d 2c7e 803d
00000080: 0364 503e 0c96 70be 1a7d 053f c322 3bbe
00000090: bc5c 83be bc73 12bf f766 68be 91db d33c
000000a0: cd79 e1be 3718 65bf 5804 113f 06ca 80be
000000b0: c4c8 c23e a4fb a53e f5c7 4b3f 3806 593f
000000c0: 4713 30bc 340c dfbe dfbd 283f 50ea 083d
000000d0: 69e7 053f 7db0 003f e9cb ebbd 97b0 24bf
000000e0: 24da 79be 50b3 053f 0011 f43d 2cf1 3db9
000000f0: 1325 903d dd6e 07be 0cc8 053f 9b9f 37bf
0.56394136 0.09557032 0.062849656 -0.07229454 0.15341659 0.1942666 0.31522632 0.4962052
-0.008660095 -0.078581214 -0.07874664 0.097359866 -0.46351218 -0.196271 0.033672605 0.1670074
0.10622331 0.4712792 0.26848894 0.71368235 0.07540679 0.011143985 0.26102713 -0.12529102
-0.86387986 -0.14283219 -0.53283715 -0.050194588 0.27689916 -0.49174547 0.07184219 0.062740654
0.20350651 -0.23494738 0.52144015 -0.1827498 -0.25656688 -0.57207847 -0.22695528 0.025861533
-0.4403824 -0.89490074 0.56647253 -0.25154132 0.38043797 0.3241855 0.79601985 0.84775114
-0.010746784 -0.43563998 0.6591472 0.033426583 0.5230623 0.502693 -0.11513502 -0.64331955
-0.2439962 0.52226734 0.11917305 -0.00018114288 0.07038321 -0.13225885 0.5225837 -0.71727914
