bomberman/teams/dreamworks.pt (torch, 254876 bytes, 6 tensors)

weight f4 [64, 908]
00000000: ac25 9ebb c563 86bc 9b6b 2bbc b4c2 6cb9
00000010: 5afa babb 5a03 e6bb 1af8 c739 9548 333b
00000020: 708e 68bb 62fd f63b 1d07 a4bb 8b37 95bc
00000030: efef 9fba 1ded e6bb b8aa 39bb 81cf 7bbc
00000040: 9d4a 61ba a383 d6bb 84f6 0c3c eb2f 89bc
00000050: 3782 44b9 5605 febb b089 293c b52d 3dbb
00000060: 9982 c43b f2f5 8e39 5db0 44bb 1d31 b2bb
00000070: 8220 b73b 5eee 60bc 8260 a63b 8ffa 31bb
00000080: ecf2 fc3b 5a1b 183c 2bc1 473c baf6 3d3c
00000090: 7ed9 0ebc c797 6339 1b17 cfbb 3abd 12bb
000000a0: dcc9 773b 9fbb 08bc 55b2 53bc cc8d 3dbb
000000b0: ea10 7d3c 568e 813b 1fd6 423c 4c9c 0e3c
000000c0: 3929 783c 919b ab3b b1d7 a9bb 04dc 0f3c
000000d0: 12a1 5bbc 44a2 74bc a1be d4ba 4e8d 72bc
000000e0: 3d46 1abb eaf6 8dbc a3f3 57bc bee4 10bb
000000f0: c473 3c3c e762 b3bc ec9d 923b b682 a9bc
00000100: ebe4 ab3b 908b ce3c 43a9 fbbb 7a90 87bc
00000110: 6dba d5bb f086 ab3c d65b 3c3c 9e48 383c
00000120: ab99 03bc f5a6 ac3c 70a7 513c a97c 82bb
00000130: 41fb 553c 9bcd 593c d344 233c 2798 113c
00000140: 5043 aa3b d10f 413c b1c3 0bba 92fa 8bbc
00000150: 602f 67bb d288 333c 34e5 f7b8 339e cc3c
00000160: 3105 1fbc cf13 ccbb 39e1 c1bb 431d c5ba
00000170: 629d e1bb 88ff eb3b 7b18 40bc 063c f23b
00000180: 8979 873b 1482 f3b8 1e4a 893b a25c 263c
00000190: e2a9 113c e84c 903a 3773 9b3a cc26 183c
000001a0: 284e 143c d162 6ebc 7e67 39bc 0421 9fbb
000001b0: c4c4 6cbb 65fb d7bb 5db5 1bbb 61d9 ce3b
000001c0: 09af 06bc 88e1 f43b c3cb 073c 1099 9dbb
000001d0: 390d 25bc 539d b33b 3658 b6ba 10cc a9bc
000001e0: c8b8 9135 747b 78bc 09a1 acbb dd59 3c3b
000001f0: f321 fd3a 7a77 d63c 70dc dfb8 777d 9039
00000200: 352d 9c3b 6f8b 24bc 021e 77bb d648 643b
00000210: 8591 d439 5182 e43a 9caa a4bb 8ff9 3fbb
00000220: 0336 c63b 18b3 ed3b ab74 743b 0cab 8cbc
00000230: af9b d63a c5cf 20bb 4675 32bc 60e5 773c
00000240: d492 5f3c e977 f93a e0fe b3bc 8e23 1a3b
00000250: a4b9 363c 980d 8c3c 32a2 f63b c951 6e3b
00000260: 62a8 0ebc fb5c b2b9 4504 55bc 1acf 6fbb
00000270: b5d5 583c e404 3dbc 64d7 0bbc 3309 cbbb
00000280: 3af4 a63a 1547 1ebc 7a13 e6bb a74f 04bb
00000290: 27ea 493c a915 acbb 0ec4 53bc 3469 833b
000002a0: 07a2 48bc adc2 3d3c 62fc 2c3c b901 a5bb
000002b0: 2c0c 863b 479f 063c 2adc 12bc c5af 43bb
000002c0: ed83 543c 6ea8 b73b 13f5 533b 8958 4f3c
000002d0: 6d35 10bb 2d70 05bc 39e5 09bb 8eb6 4e3c
000002e0: 6171 283c 8db2 c73b 6d3b 64bc 4e17 bc3b
000002f0: 5da4 2cbc 908b 453c afca 123a 92d0 32bb
00000300: ef06 553c 0224 c9bb 8439 1d3c 50b0 393c
00000310: cd97 89bb 5135 a2bb 0151 063c 643f bf3b
00000320: 3c9f 153c 0610 383c 92c5 36bc e572 6f3b
00000330: a5e5 043c 87c6 123b 1479 96bb 1542 aabc
00000340: d1ae 243c e4a0 293b a23e 3fbc 8b67 b6bb
00000350: 590d 8ebc d6e8 81bb d45c 843b 7d83 5339
00000360: 334a ebbb eeb7 553c 1163 ecbb 6f0e 343c
00000370: 87bf 5e3c 7ada 79ba d990 90bc e387 563c
00000380: 3417 ddba 0cbb 83bc 84f7 2e3c 41a1 50bc
00000390: 950d d03b b242 13bc eae6 c73b 58c2 453c
000003a0: dd89 4f3c d506 00bc 2a26 66bc 6332 90bc
000003b0: ce05 2dbc b61d 28bc 5759 693c 3a89 32bb
000003c0: 69c2 553b f104 03bb 1f1a d6bb 9616 b23b
000003d0: 61a6 20bc 945c 72bb fffb 32bc 725e 2e3b
000003e0: 59c9 17bb 2908 55bc bac8 b1bb 43cf 93bc
000003f0: 5c6c dbba 7763 58bc e02c 7fbc 23f2 ab3b
-0.004826268 -0.016404996 -0.010462667 -0.00022579246 -0.0057061138 -0.0070194425 0.00038141088 0.0027356495
-0.003548529 0.00753753 -0.005005731 -0.018214962 -0.0012202243 -0.007047309 -0.0028330516 -0.015369297
-0.0008594187 -0.006546454 0.008603696 -0.016746482 -0.00018740525 -0.007752101 0.010347769 -0.0028866355
0.0059970138 0.00027267594 -0.0030012347 -0.0054379837 0.005588592 -0.013728706 0.0050774226 -0.0027157401
0.007719388 0.009283865 0.012192051 0.011594469 -0.008718846 0.00021704948 -0.006319893 -0.002239062
0.0037809527 -0.008345514 -0.012920936 -0.002892363 0.015445927 0.0039537353 0.011891871 0.008704256
0.015146547 0.005237051 -0.005183183 0.008780483 -0.013405101 -0.014931265 -0.0016231128 -0.0148041975
-0.00235404 -0.017329652 -0.013180646 -0.0022108997 0.01150221 -0.021897746 0.004474392 -0.02069221
0.005245795 0.025213033 -0.0076800897 -0.016548384 -0.006522468 0.020938367 0.011496505 0.011247782
-0.008032243 0.021075705 0.012796268 -0.003982146 0.013060392 0.013293649 0.009965139 0.008886374
0.0051960126 0.011783556 -0.00053315895 -0.017087255 -0.003527604 0.0109579135 -0.0001182057 0.024977779
-0.009705828 -0.0062279473 -0.005916741 -0.0015038628 -0.0068852166 0.0072020926 -0.011724587 0.0073924093
0.004134361 -0.00011611372 0.0041897437 0.010153921 0.008890601 0.0011009248 0.0011859898 0.009286594
0.009051837 -0.014549927 -0.011316178 -0.0048562307 -0.0036128024 -0.006591248 -0.0023759224 0.0063125347
-0.008220443 0.0074731745 0.008288327 -0.0048095062 -0.010073953 0.005481401 -0.0013911787 -0.020727187
1.085712e-06 -0.015166152 -0.0052682203 0.0028740086 0.0019312486 0.026180018 -0.00010674528 0.000275593
0.0047661313 -0.010043009 -0.0037707095 0.0034833453 0.00040544212 0.0017433857 -0.005025221 -0.0029293036
0.006048919 0.0072540157 0.0037300985 -0.017171405 0.0016373302 -0.0024537903 -0.010892218 0.015130371
0.013645846 0.0019032928 -0.02197212 0.0023519727 0.011152659 0.017096326 0.0075266594 0.0036364666
-0.008707138 -0.00034020082 -0.013001506 -0.0036591948 0.0132345455 -0.011536811 -0.00853524 -0.006196165
0.001273758 -0.009660502 -0.0070213648 -0.0020189078 0.012323893 -0.0052516055 -0.012925161 0.004010344
-0.012245662 0.011582059 0.01055822 -0.0050356057 0.0040908065 0.008216686 -0.008963624 -0.0029859405
0.012970907 0.005604795 0.003234212 0.012655386 -0.00220045 -0.008144421 -0.0021041168 0.012616767
0.010280938 0.006094283 -0.013930184 0.005740083 -0.010537234 0.0120572 0.000559966 -0.0027284962
0.013002141 -0.0061383257 0.009596232 0.01133354 -0.0041990043 -0.0049502035 0.008198024 0.005836414
0.009132203 0.011234289 -0.011155503 0.0036536988 0.008111392 0.0022396164 -0.0045920704 -0.020783463
0.010051445 0.0025883252 -0.011672648 -0.0055665425 -0.017340349 -0.003964524 0.0040393863 0.00020171511
-0.007180476 0.013044341 -0.007213958 0.010989769 0.013595468 -0.0009531152 -0.017647194 0.013093921
-0.0016867877 -0.016080402 0.0106791295 -0.012733758 0.0063492754 -0.008988069 0.006100525 0.012070261
0.0126671465 -0.007814129 -0.014047185 -0.017602151 -0.010560466 -0.01026099 0.014242492 -0.0027242438
0.0032617098 -0.001999196 -0.0065338756 0.0054348214 -0.009805293 -0.003698145 -0.010924338 0.0026606587
-0.0023160784 -0.013002434 -0.00542554 -0.018043166 -0.0016740668 -0.013207308 -0.015574664 0.005247371

bias f4 [64]
00000000: e6f8 4a3c 7104 4abb b424 53bc 96e3 8dbb
00000010: 7c1c 69bc 6f75 84bc 81b7 78bc 771e 5cbc
00000020: 7efc 2e3c 99f4 68bc d335 c43b 166d 51bc
00000030: 745e c63b e000 2dbc 8aee 16bc 4520 963b
00000040: 83d6 5bbb e94a d6b9 79b6 293c 7e8d 16bc
00000050: a1af 16bb 277f 8ebc e3d4 d83b 5d4c d93b
00000060: 4c19 78bc a934 853b 2e0e 2d3c 3225 77bc
00000070: 1759 2cbc 355f 71bc f730 013b 9563 aa3a
00000080: 5440 363c e109 20bc 0f86 c13a 291b 5fbc
00000090: e219 fcb9 87cf bf3d 108c 693c 08c7 f13b
000000a0: 917c 553c 1c48 cdbb 9a67 18bc 49da 4ebc
000000b0: 4426 51bc b233 003b 55fb 3fbc 07eb 6bbc
000000c0: 5cb4 4c3c 30da fdbb 1a87 9cbb 8e2d dbb8
000000d0: fd07 8dbc 7315 39bc 49a8 81ba a73f 24bc
000000e0: e79e 2f3c 7cc5 75bc 5b09 5abb 70a1 d0bb
000000f0: be4f febb 4162 91bb 9089 38bc 0cf1 2c3b
0.012388444 -0.0030825401 -0.012887169 -0.004330109 -0.014227983 -0.016169278 -0.0151804695 -0.013434998
0.010680316 -0.014218473 0.0059878617 -0.012782356 0.00605374 -0.010559291 -0.009212146 0.0045814835
-0.0033544607 -0.00040873073 0.010358446 -0.009189008 -0.0022992867 -0.017394615 0.006617175 0.0066314177
-0.01514275 0.0040651155 0.010562463 -0.015084552 -0.010519288 -0.014732172 0.0019713023 0.0012999648
0.011123735 -0.00976798 0.0014764684 -0.013617315 -0.0004808447 0.093657546 0.014254585 0.0073784627
0.013030187 -0.0062646996 -0.009302044 -0.012625285 -0.012765471 0.0019562063 -0.011717637 -0.014399297
0.012494173 -0.0077469572 -0.0047768475 -0.00010451219 -0.017215723 -0.011296618 -0.0009892072 -0.0100249415
0.010719038 -0.015000697 -0.0033269736 -0.006366901 -0.007760971 -0.0044367616 -0.011263266 0.0026388792

weight f4 [64, 64]
00000000: d431 debc dd87 20bd c76e c3bb ab0d e7bc
00000010: 28c4 1abd bedb 1c3c 0a28 9f3b 4ae8 06bd
00000020: e267 f3bc 9919 cd3c 60f7 4ebd 1dc1 ca3c
00000030: 80fd 293d 536e c4bb 8f41 22bd 27a0 983c
00000040: 7576 2c3d 0591 c9bc 0652 393d e058 e63c
00000050: 76ff 7a3c 4d87 f13c eadd 87bc 6abd c83c
00000060: c93d a13b 04ce 143d a705 4a3a 918b 0bbd
00000070: 0b2c 783c 258c e9bc 67c5 ad3c e38f 82bc
00000080: e295 4fbd 9468 713d fb5e 37bd 80e6 71bd
00000090: d190 0ebd 81f5 4fbd c63f 0a3d 2bee af3c
000000a0: bb55 403d b93f 2cbd baa9 e73c 8ebb 623d
000000b0: c43a 153d 9ad8 52bd 96cc 5f3d 1c93 96ba
000000c0: 0329 b6bc fd72 5cbd ed65 00bd f448 073d
000000d0: 3ca5 5a3c b93a dbbc f6d4 29bd 4a8c 0c3d
000000e0: 7944 0fbd 6ee0 053d a5b3 18bd d349 b5bc
000000f0: 4ce3 453d b7d3 2bbd c7f1 3fbd 50ac 95bc
00000100: f885 fe3c 3db7 913b a301 503d 7eb3 16bc
00000110: 97d4 183d 0f69 6e3d 79f9 82bc d3e0 2cbb
00000120: 9e17 193d 8d56 58bd e403 4bbd 082c 573d
00000130: d524 6bbc d562 703c 4bf0 45bd 7589 c8bc
00000140: e702 6c3c 2482 33bc 686e 7b3d d4e8 b33c
00000150: 6cf7 36bd 42d6 fcbc 58a9 503d 9ab7 f63c
00000160: cafa fd3c 1ce0 0fbb f1ca f83b a020 463d
00000170: fb29 8ebc e247 3b3d a07f 403d ae4a 3abd
00000180: c536 c43c a4fd 163c 1ecc 84bc 077a 17bb
00000190: 615c 92bc 18ff a03d 4db5 50bd d855 683d
000001a0: e8b5 2ebc b58d debc 2738 4e3c 18de 0dbd
000001b0: fd12 013d a39c 673d a29b 22bd 67ac 25bd
000001c0: 3a29 73bc 0c91 83bc 03ed 04bd f4e8 82bc
000001d0: f62a 123d 366b ac3b 1c3e ae3c 608c 73bd
000001e0: 7dc6 d53c c544 3e3c addb 5cbc caee 213d
000001f0: ad18 d9bc ba62 18bd 66d4 17bd ecf8 4dbd
00000200: 90c3 223d a55f 1fbd 930c 63bb d86f ff3b
00000210: d324 273d 64fa 443d ccfb fd3c fd5a 133b
00000220: fda6 57bc 5e17 ff3c cad0 8d3b c8b4 393d
00000230: 7c63 f4bb 5a52 fe3c cf2a 3cbd adf1 c3bc
00000240: dafe 4b3d 5c9a 81bc b0ab 80bd 5cc2 0e3c
00000250: f4f8 9ebc e841 313d 7fc9 22bd 4ff2 71bc
00000260: c5be 68bd 6500 cfbc dad3 493d 7969 173d
00000270: a6e1 223d dc8b 54bd d930 20bd c2a6 4d3b
00000280: ed67 533c 5d0a 2dbd ed89 f23b adb6 6fbc
00000290: 2e38 9dbc e5c1 a4bc b1a2 17bd 4555 ad3b
000002a0: 2124 3abd 95fb 533c 2080 b3bc bb5c c8bc
000002b0: 83ea 17bd 15f1 5d3d 4f4e ba3c 0633 dabc
000002c0: 06ea 483c cd16 1f3c 7b26 52bd 2d51 4f3d
000002d0: 4d45 3d3c 2ad6 533d 34dd 5b3c c2d4 ecbc
000002e0: 793b aebb 8dd9 b33b 95f7 70bd 7a98 63bd
000002f0: 9440 75bc bb14 bb3c 5ba9 64bc 8736 00bd
00000300: fbb5 03bc 6083 f03a 6bc6 55bd b2e0 0bbb
00000310: 2565 313d 8a80 0abd 5cea 5a3a 5acc 083d
00000320: 4eaf 35bd 80fb c43c 7399 25bd 80e7 63bd
00000330: 314d 47bd 5ced 393d afcc 09bd 4424 0b3d
00000340: eea3 2e3d b3e4 d73c ba72 943c db46 593b
00000350: 9c72 863c 829f 0ebd 98f6 93bb 2c75 743b
00000360: ad1a 97bb 4be3 c4ba 5fd0 e83c d202 c7bb
00000370: 766a 34bc b772 823b f928 343c 1111 213d
00000380: f032 203c c85f 7e3d 507c 6ebc b3db d4ba
00000390: d04c 8b3c b3e3 103c ab6d 8ebc cd9c 82bc
000003a0: f4f8 a3bb 1091 9d3b 9f78 bdbc 71e7 1ebd
000003b0: a5a8 a03a b66e 5c3d 78b0 4a3d b7f8 0ebd
000003c0: bf81 243d 6cae ed3c c545 d83c 7b75 653d
000003d0: 3f8c 51bd 8766 6a3d b5f9 3bbd 7c9a 583d
000003e0: 6b22 363d bc44 20bd 7804 063d b3b3 43bd
000003f0: 27a5 643d e3ad 5dbd 6b08 263d 163f 443d
-0.02712337 -0.03919207 -0.0059641334 -0.02820476 -0.037784725 0.009573875 0.004857068 -0.032936372
-0.029712621 0.02503662 -0.050528884 0.024750287 0.041501522 -0.005994597 -0.039613303 0.018631054
0.042105157 -0.024605284 0.04524424 0.02811855 0.015319696 0.029483462 -0.016585309 0.024504382
0.0049206954 0.036329284 0.0007706531 -0.034068648 0.015147219 -0.028509209 0.021212293 -0.015937751
-0.05068005 0.058937624 -0.044768315 -0.059057713 -0.034806076 -0.05077124 0.033752225 0.021475872
0.04695676 -0.04205296 0.028279174 0.055354647 0.036432996 -0.0514761 0.054638468 -0.0011487934
-0.022236353 -0.0538206 -0.031347204 0.033028558 0.013345059 -0.0267614 -0.04146286 0.034313478
-0.03497741 0.032684736 -0.037280697 -0.022129929 0.04831247 -0.041949954 -0.046861436 -0.018270642
0.03106974 0.0044468925 0.05078281 -0.009198068 0.037312116 0.05820566 -0.015988098 -0.0026379123
0.03737604 -0.052816916 -0.049564257 0.052532226 -0.014352043 0.014672001 -0.048324864 -0.024479607
0.014404989 -0.010956321 0.06138459 0.021961607 -0.044669554 -0.030863885 0.05094275 0.030116845
0.031003375 -0.0021953648 0.007592552 0.048370957 -0.017354002 0.04572285 0.046996713 -0.045481376
0.023951897 0.009215746 -0.016210612 -0.0023113505 -0.017866315 0.07861155 -0.050954152 0.056722492
-0.010663487 -0.02716718 0.01258663 -0.034635633 0.03151225 0.056545865 -0.039699204 -0.04044762
-0.014841372 -0.016060375 -0.032452594 -0.015980221 0.035685502 0.005261804 0.02126985 -0.059460044
0.026095623 0.011613076 -0.013480109 0.039534368 -0.026501024 -0.037203528 -0.037067793 -0.05028622
0.039737284 -0.038909573 -0.0034644946 0.0077953152 0.040806603 0.048090354 0.031003855 0.0022484653
-0.013162372 0.031139072 0.004327868 0.045338422 -0.0074581485 0.031045128 -0.045939263 -0.02391895
0.049803592 -0.015820675 -0.06282747 0.008713331 -0.01940582 0.043275744 -0.039742943 -0.0147672435
-0.056822557 -0.025268743 0.049274303 0.03696582 0.039765976 -0.051891193 -0.039109085 0.0031379913
0.012903196 -0.04224621 0.007401696 -0.014630956 -0.019191828 -0.020111987 -0.03702039 0.005289706
-0.04544461 0.0129384 -0.02191168 -0.02445828 -0.037088882 0.054184992 0.022742419 -0.026635658
0.012262827 0.009710026 -0.05130623 0.050614525 0.011552167 0.051717915 0.013419438 -0.028910045
-0.0053171483 0.0054885806 -0.058829863 -0.055565335 -0.01496901 0.022837033 -0.013956393 -0.031302
-0.008038993 0.00183497 -0.05219118 -0.0021343646 0.04330935 -0.03381399 0.00083509623 0.03339801
-0.044356637 0.024045706 -0.040429544 -0.055640697 -0.0486576 0.04539238 -0.033642467 0.033970132
0.042636804 0.02635417 0.018121112 0.0033153805 0.016412072 -0.034820087 -0.0045154803 0.0037301285
-0.0046113343 -0.0015021352 0.028419672 -0.0060733343 -0.01101171 0.00398096 0.010996097 0.039322916
0.009777769 0.062103063 -0.014556006 -0.0016239792 0.0170044 0.00884335 -0.017386278 -0.015943909
-0.0050040428 0.0048085526 -0.023128806 -0.03879494 0.0012257291 0.05381652 0.0494847 -0.03490516
0.040162798 0.029013835 0.026400456 0.05602024 -0.05115914 0.057226684 -0.045892436 0.052881703
0.044466417 -0.03912805 0.032719105 -0.047778796 0.055821564 -0.05412091 0.04053537 0.047911726

bias f4 [64]
00000000: d39e 1dbd 7c6a 083e 661a ec3c 603b b8bd
00000010: d7b5 0e3e 55f4 443e 69a2 57bd 40e8 2abd
00000020: 8a34 933c 46d7 e3bc 28fd ffbc e1e8 a03d
00000030: c45e 8cbd bf14 003b 509c 1bbd 4ea4 463e
00000040: 0e6f 543d a1d2 30bd 2a07 783b d229 ae3d
00000050: 5bd0 c9bc 64d3 1f3e 1177 59bd 1e0f 0a3d
00000060: 15e4 49bd ff8b b63c 3b0b 0d3e 1ccb 113e
00000070: cf6d 09bc 3b63 65bd 674f 4a3c 676c 3a3e
00000080: ffa8 533e a4b2 ff3c 2c52 093e b241 d1bc
00000090: b0f7 9abc 3356 333c c1ba 4a3e 43a3 c6bc
000000a0: 3aed 85bd 62f9 453e 6b39 293e 717c 12bd
000000b0: 0856 be3b bf78 d0bd a7d7 5cbd 4692 273e
000000c0: 6067 65bd e7da 9f3c f6e9 1abd cf0c d13c
000000d0: 9dff 0d3e 459f 023e b245 15bd 132b 993c
000000e0: b4c8 033e ee9a 653d c85a 1c3d e0ba 573e
000000f0: 9883 d0bc a835 183d 2f00 3c3e 1f2b 233e
-0.038481545 0.1332187 0.028821182 -0.089957 0.13936554 0.1923383 -0.05264512 -0.041725397
0.017969389 -0.027812611 -0.031248644 0.07856918 -0.068540126 0.0019543616 -0.037990868 0.19398615
0.051863723 -0.04316962 0.0037846067 0.0850407 -0.024635484 0.15607983 -0.053092066 0.033705823
-0.04928978 0.022283552 0.13773815 0.14237636 -0.008387997 -0.056002837 0.012348033 0.18205415
0.20669936 0.031213112 0.13410252 -0.025544021 -0.018916935 0.010945844 0.19797803 -0.024247771
-0.06539388 0.19333413 0.1652581 -0.035763208 0.0058085956 -0.101792805 -0.0539166 0.16364393
-0.05600679 0.01951356 -0.03782078 0.025518803 0.1386704 0.12756069 -0.03644342 0.018697297
0.12869531 0.056055956 0.038172513 0.21067381 -0.025453374 0.037160546 0.18359445 0.15934418

weight f4 [7, 64]
00000000: 2616 a13c 31e0 d0bd aa9d 41bc 6070 bb3c
00000010: b821 b1bd c454 afbd a847 b1bb 215a 91bc
00000020: c5c5 a33b f05e 083d 76ac a63c d027 d1bd
00000030: 32ac 103d cec7 c03c 751c 5b3d 4d12 c3bd
00000040: 8b3a c43c 099f 353c ed7a 4dbd 9321 81bc
00000050: fd84 583d 0fbc cebd e443 183d c929 5fbd
00000060: ee2f f43c 8b1b 2a3d 3745 9bbd b704 52bd
00000070: 4d11 0dbd 24ab 79bb 4e32 603d 8b1c b8bd
00000080: 022a ddbd ffae 493d 1db7 09be a95c 483d
00000090: 17b8 4a3d 55d6 13bd 9b97 12be e8af 90bb
000000a0: 4984 5abd 9b05 a3bd c990 e9bc 2a5b 49bd
000000b0: ddc8 9bbc 0c47 4539 3f93 04bd bb89 00be
000000c0: 49f8 043a 3c73 2c3c e0da 073c 7678 0a3d
000000d0: f18d a9bd dd0f 073c e372 e93b e254 d03b
000000e0: c4d4 98bd 1154 ae3b c518 9b3a f314 9cbd
000000f0: 0a22 fe3c 5f32 513d 736d 87bd a506 c8bd
00000100: 3654 ebbc 474e 18bd 7089 383d 7930 30bd
00000110: ac7e 43bd 2008 ddbd 8a84 ff3b 6a8e 80bc
00000120: 395d d03c 29ec e23c 8753 a1bc 623d 86bd
00000130: c5ee 7b3d f054 20bd bea6 b5bc 1533 11be
00000140: 4567 fb3b bd61 fc3c d4a2 f7bc 4da6 b1bd
00000150: 311f 66bd 4f42 76bd eb61 6bbc 18bd 5f3d
00000160: 1847 af3b ddab 1abb 52a3 9bbd e41c 63bd
00000170: f367 08bd 3bc1 633d 1300 3ebd 50ff 2dbd
00000180: c6c9 ffbd 137f 4c3d 251d a2bd 6cc1 fb3c
00000190: 14aa 373b ac8e 37bc 9746 91bd b00b 123d
000001a0: d5d6 afbc d4a0 5dbd d327 a2bd 86c6 0a3c
000001b0: a7bd 6f3c 3961 e5bc 82d9 6cbd e6ec 8ebd
000001c0: 9f4e 87bc b239 0e3d 6ab7 863c 6488 863c
000001d0: 1163 9fbc 0967 88bd beea f63b e624 29bd
000001e0: a2a2 03be 9777 5f3a 3b03 87bb ef87 cdbd
000001f0: f34c 5fbd 27d0 0ebd fea2 a5bd fc3e 14be
00000200: cd47 6f3d 5a09 bfbd 88e2 4abd 9ed2 ff3c
00000210: 4130 c7bd ea2f d5bd 2fa8 793c 2d93 0abd
00000220: a7d3 993c f16e c8bb 5819 0a3c 2d30 23bd
00000230: f495 b83c 06ca 0dbd 69df 99bc 4be5 05be
00000240: 8fa9 4abc c733 253c 3695 063d 1c46 8cbc
00000250: 2d3c 5bbd 0dce 31bd fb2e 603d 4925 083d
00000260: e31c 5ebd d8c3 8dbb 99c4 e2bd 8ec3 40bd
00000270: c340 503d 17e3 28bd f440 743d 7e5f 96bd
00000280: 4c4e 03be 7ccb b8bc 65a4 d6bd 7c5c 0abd
00000290: f5a8 d5bc 6ca1 e5bb d39a 06be 2cfc 083c
000002a0: 7964 84bb 729d 57bd fbae 12bd d9db 973c
000002b0: 0ec5 473d 392e e93c 5ac5 c7bc 7edd 81bd
000002c0: 80fb f73c 8931 40bd dd9c a3ba b5e4 053d
000002d0: 0934 93bd 4717 85bd c0e6 37bd 9bc6 c9bc
000002e0: 9f0b b3bd 34d6 15bd b5b6 43bd 9daa 05be
000002f0: 2346 59bb 50a4 163d e71e 5bbd ef28 c4bd
00000300: 47fc 3dbd df6d efbd 95af cb3c 763d 8a3d
00000310: a663 a7bd f88b 07be ec76 d3bc 3689 b83c
00000320: 1f4a 55ba a626 9c3c 1955 cfbc 0118 38bd
00000330: 9489 73bc 12bb 93ba fd35 b3ba de34 6dbd
00000340: 7713 bf3c 8ffc 4c3d fe48 94bb 9079 3f3c
00000350: 878a 3cbd 2213 afbd 2035 1b3d b431 4abd
00000360: 7867 3f3d 163b 343d 8296 93bd 99c6 7dbd
00000370: 0483 23bd c326 0dbd 5d6f c4bc 2674 05be
00000380: b75e 1ebe 778b e2bc 5818 81bd 5b85 003d
00000390: e512 103d 9fae c4bc 9199 cbbd 287b da3c
000003a0: 1cdc f5bc b926 1bbe 677a 71bd e963 473d
000003b0: 4a47 72bb cecb c73b 3c5a 51bd 8c0e a7bd
000003c0: 1d0b e6bc e843 f6bb a04e 0cbc b32d be3c
000003d0: 2d50 46bb b192 fdbc 36fb c0bc 23ec 29bb
000003e0: 17ac 46bd 3f69 56bd 7c93 f63c a11e 02be
000003f0: 8b74 463c 9d31 15bd e254 67bd 5ae4 efbd
0.019663882 -0.10199011 -0.011817375 0.022880733 -0.086490095 -0.0856109 -0.0054101534 -0.017743172
0.004997941 0.033293664 0.020345908 -0.10212672 0.03532047 0.023532774 0.053493936 -0.09524975
0.023953697 0.01108528 -0.05016606 -0.01576308 0.052861203 -0.10094463 0.03717412 -0.05448321
0.02980801 0.041530173 -0.07581561 -0.051274028 -0.034440327 -0.0038096393 0.054735474 -0.08989819
-0.10799028 0.049239155 -0.13448758 0.048916493 0.049491968 -0.036093075 -0.14315645 -0.004415501
-0.053348813 -0.079600535 -0.028511422 -0.049159206 -0.019016678 0.00018813851 -0.032366987 -0.1255254
0.0005072398 0.010525521 0.00829193 0.033806287 -0.08279026 0.008243528 0.0071242913 0.006357775
-0.07462457 0.00532008 0.0011832943 -0.07621183 0.03102209 0.05107343 -0.06612673 -0.09766892
-0.028726678 -0.037184026 0.045052946 -0.043014977 -0.047728226 -0.10792565 0.0077977823 -0.015692908
0.025435077 0.0277005 -0.01969315 -0.065546766 0.061507005 -0.039143503 -0.022174235 -0.14179642
0.007672223 0.030808324 -0.03022901 -0.086742975 -0.05618209 -0.06012183 -0.014366607 0.054623693
0.005349051 -0.0023600974 -0.0759951 -0.055447474 -0.03330226 0.0556042 -0.04638679 -0.042479813
-0.12489657 0.049925875 -0.07915715 0.03073188 0.0028024958 -0.011203449 -0.07093542 0.035655677
-0.021464745 -0.054108456 -0.07917752 0.008470183 0.014632619 -0.028000461 -0.05782462 -0.069787785
-0.016516982 0.03472299 0.01644488 0.016422458 -0.019456418 -0.066602774 0.0075353077 -0.041294955
-0.12855008 0.0008524595 -0.004120258 -0.10035693 -0.054516744 -0.03486648 -0.08087729 -0.14477152
0.058418084 -0.093279555 -0.049532443 0.03122836 -0.097260006 -0.104095295 0.015237852 -0.033831764
0.018777682 -0.006116741 0.008428894 -0.039840866 0.02253244 -0.034616493 -0.018783288 -0.1307575
-0.0123695275 0.010083145 0.032857142 -0.017123275 -0.053524185 -0.043409396 0.054732304 0.033238683
-0.054226767 -0.004326325 -0.11072654 -0.047061495 0.05084301 -0.041232195 0.059632257 -0.073424324
-0.12822837 -0.022557966 -0.104805745 -0.033779606 -0.026081542 -0.0070077684 -0.13144998 0.008360904
-0.0040402976 -0.052640386 -0.035811406 0.018537449 0.04877191 0.028464423 -0.024386097 -0.063410744
0.030271292 -0.04692224 -0.0012482662 0.032688815 -0.07187659 -0.064985804 -0.044897795 -0.024630835
-0.08742451 -0.036581233 -0.047781665 -0.13053365 -0.0033153377 0.036777794 -0.053496268 -0.0957812
-0.04638317 -0.11690878 0.024863997 0.06750004 -0.08173303 -0.13236988 -0.025813542 0.022526365
-0.000813635 0.019061398 -0.025309132 -0.044944767 -0.014864344 -0.0011270961 -0.0013672706 -0.057911746
0.023324711 0.050045546 -0.004525303 0.011686698 -0.046030547 -0.08548571 0.03789246 -0.049363807
0.046729535 0.04400166 -0.072064415 -0.061956976 -0.039919868 -0.034460794 -0.023978883 -0.13032588
-0.15465818 -0.027654393 -0.06303471 0.031377178 0.03517427 -0.024009047 -0.099414 0.026670054
-0.030012183 -0.1515149 -0.058954623 0.048679266 -0.003696876 0.0060972935 -0.051111445 -0.081570715
-0.028081471 -0.0075154193 -0.008563668 0.02321515 -0.003026019 -0.030953737 -0.023557287 -0.0025928102
-0.04850396 -0.052346464 0.030099623 -0.12706997 0.012112747 -0.036424268 -0.056477435 -0.117134765

bias f4 [7]
00000000: b721 03be e659 4abe 3e84 0dbe 8958 dcbd
00000010: b528 19be 0866 45be 985c 3cbe
-0.1280583 -0.19760856 -0.13819978 -0.10759074 -0.14956935 -0.19277203 -0.18394697
