bomberman/teams/dsms.pt (torch, 508338 bytes, 11 tensors)

weight f4 [64, 908]
0	0xbb9f6c01	-0.00486517
1	0x3c427dc0	0.011870801
2	0xbccc2c22	-0.024923388
3	0xbdeb19fb	-0.11479565
4	0x3dc8b77f	0.09800624
5	0x3d7c2dc4	0.061567083
6	0xbb7344f3	-0.0037119954
7	0x3cf30052	0.029663239
8	0x3e1bd32e	0.15217277
9	0xbcef4b3e	-0.029210683
10	0xbab085af	-0.0013467575
11	0xbcb577fd	-0.022151941
12	0x3c6ef727	0.014585293
13	0xbb27b9fb	-0.002559303
14	0x3bfe067f	0.0077522392
15	0x3cf854f9	0.030313956
16	0x3d8a9bbf	0.067679875
17	0xbc27493f	-0.010210334
18	0x3d787de2	0.060666926
19	0xbd2b74bb	-0.04185937
20	0xbd29b95c	-0.041436538
21	0xbd8cfdff	-0.068843834
22	0xbab5acae	-0.0013860667
23	0xbd6c2e52	-0.057661362
24	0x3c245a72	0.0100313295
25	0xbce27f4c	-0.02764859
26	0x3a82e67c	0.0009986903
27	0x3d1a0609	0.03760341
28	0x3c80c1ac	0.01571735
29	0x3cc2e554	0.023790993
30	0xbb8d662f	-0.0043151597
31	0x3de01986	0.10942368
32	0x3d109bd9	0.035304878
33	0x3c879a8f	0.016553191
34	0x3d7add09	0.06124595
35	0x3d1fcfdb	0.039016586
36	0x3d92e7c0	0.07173109
37	0x3d0aa269	0.033846293
38	0xbd4e9b77	-0.05044123
39	0xbdcf3198	-0.10116881
40	0xbd0f48be	-0.03498148
41	0xbd34810c	-0.04406838
42	0xbc8f2a68	-0.017476276
43	0xbd2291e5	-0.039689917
44	0xbd0d6041	-0.034515623
45	0xbd31e2d3	-0.043429207
46	0xbc9891b0	-0.018624157
47	0x3d5a6484	0.053318515
48	0xbb9b6a59	-0.0047429022
49	0x3d52dec7	0.05148199
50	0x3b8e28f1	0.0043383767
51	0x3cc37c68	0.023863032
52	0x3dd04e46	0.101711795
53	0x3c294284	0.0103308
54	0xbc5c24eb	-0.013436536
55	0x3d6b7123	0.057480942
56	0x3bc360a9	0.0059624505
57	0xbd4b1563	-0.049580943
58	0x3d20b5d2	0.039235897
59	0xbccae4bc	-0.024767272
60	0xbc2c6d91	-0.01052417
61	0xbd00ebd7	-0.031474914
62	0x3cb7ce85	0.022437343
63	0x3c1cfa43	0.009581151
64	0x3d7003d8	0.058597416
65	0x3d255aa5	0.04036965
66	0x3cc0b4a8	0.023523644
67	0x3b84c01e	0.0040512225
68	0x3e3b63d9	0.18299808
69	0x3d9eb8eb	0.07750114
70	0x3d5efdd9	0.054441307
71	0xbc647218	-0.013943218
72	0xbe5b6e33	-0.21428756
73	0x3dbe1051	0.09280456
74	0xbcd8d000	-0.02646637
75	0x3d82dde8	0.063899815
76	0x3da12767	0.078688435
77	0x3dd749ad	0.105120994
78	0xbd7c0fe9	-0.06153861
79	0x3d764dc5	0.06013276
80	0x3ca0d3cc	0.019632243
81	0x3d87460b	0.066051565
82	0xbbd21787	-0.006411496
83	0x3c573539	0.013135248
84	0xbd5382b0	-0.051638305
85	0x3c4dd240	0.012562335
86	0x3d0cf3bc	0.03441213
87	0xbc2bec60	-0.010493368
88	0xbd8cbce4	-0.068719655
89	0x3c65b895	0.014021059
90	0xbd287529	-0.041127358
91	0x3ca06318	0.019578502
92	0x3c9cc38e	0.019136216
93	0xbc8304ec	-0.015993558
94	0x3c8812a9	0.01661046
95	0xbd22d3b9	-0.039752696
96	0xbda89a9b	-0.08232614
97	0x3e109090	0.14117646
98	0x3d3f17e9	0.046653662
99	0x3e144a14	0.14481384
100	0xbdb01d4f	-0.0859934
101	0xbcd218fe	-0.025646683
102	0xbbe14f5f	-0.006875917
103	0xbc3374db	-0.0109531535
104	0x3da6ee10	0.081508756
105	0x3d483c59	0.048885677
106	0xbd236b1d	-0.039897073
107	0x3cc80fd3	0.024421608
108	0xbd383bc0	-0.044978857
109	0x3be8b074	0.007101113
110	0x3d265173	0.04060502
111	0x3ca54b1a	0.020177413
112	0x3c76ef59	0.015071713
113	0xbddf8107	-0.10913282
114	0x3bea665d	0.007153316
115	0xbdae3d02	-0.0850773
116	0xbd94b940	-0.07261896
117	0x3b97a6ed	0.0046280534
118	0x3c6ef7db	0.014585461
119	0x3c81eb0d	0.015859151
120	0x3d0645a8	0.032781273
121	0x3ccd1aee	0.025037255
122	0xbbffece3	-0.0078102215
123	0xbbd668f9	-0.0065432754
124	0x3e0b0e57	0.13579689
125	0xbc5a92f0	-0.013340697
126	0xbcb40e3d	-0.021979446
127	0x3d0e4da3	0.03474201
128	0xbe06b378	-0.131544
129	0x3d3b65be	0.045751326
130	0x3ca6e21e	0.020371493
131	0x3d638ac2	0.05555225
132	0x3d552a26	0.05204215
133	0x3c592e66	0.013255691
134	0xbccfadb7	-0.025351388
135	0x3cc04038	0.023468122
136	0xbce45d03	-0.027876383
137	0x3d4148d8	0.04718861
138	0x3c94e2d9	0.018174576
139	0x3d1c13a8	0.038104683
140	0x3e19e134	0.15027314
141	0x3bf17083	0.007368149
142	0xbba7c5dd	-0.0051200227
143	0x3db505eb	0.088390194
144	0x3d0dc0c9	0.034607682
145	0x3c838123	0.016052788
146	0x3d14b495	0.03630503
147	0x3d27f8f2	0.041008897
148	0xbdafce95	-0.08584324
149	0x3d67b768	0.056571394
150	0x3c686bb0	0.014185831
151	0xbccd29d8	-0.025044367
152	0x3db26349	0.087103434
153	0x3dffd87d	0.12492464
154	0x3d326dcc	0.04356174
155	0xbd4f127d	-0.05055474
156	0x3e14d9f4	0.14536268
157	0x3d7f341d	0.06230556
158	0x3d445bff	0.047939297
159	0x3d313cc8	0.043270856
160	0x3d9efdaf	0.0776323
161	0x3d9bb192	0.07602228
162	0x3d05db7c	0.03268002
163	0x3de3a637	0.11115687
164	0x3df05b46	0.11736159
165	0x3d51f7a2	0.05126155
166	0x3cb80ca9	0.022466974
167	0x3d782fbf	0.06059241
168	0xbbf887e9	-0.007584561
169	0x3d6149b7	0.05500194
170	0xbd784f53	-0.060622524
171	0x3de7fe49	0.11327798
172	0xbd581e49	-0.052763257
173	0xbde32d29	-0.11092598
174	0xbd083558	-0.033253998
175	0xbdfdef96	-0.12399213
176	0x3d800b39	0.062521406
177	0xbd008a59	-0.03138194
178	0x3cad957e	0.021189447
179	0xbccb455d	-0.024813348
180	0xbd019c56	-0.031643234
181	0x3d65fd84	0.056149974
182	0xbaa1cc77	-0.001234426
183	0x3d385f85	0.04501297
184	0x3d6ae322	0.057345517
185	0xbd0d46e6	-0.034491442
186	0x3ba57707	0.0050495896
187	0x3cda0f4c	0.026618622
188	0x3b85f9ce	0.004088617
189	0xbd141e34	-0.036161616
190	0x3b172f6b	0.0023069035
191	0x3d8eca2f	0.06972157
192	0x3d1c3a2f	0.038141426
193	0xbc8404a5	-0.016115496
194	0x3c8068a8	0.015674904
195	0xbd1042ba	-0.035219885
196	0xbd4896ff	-0.048972126
197	0x3d0e8c05	0.0348015
198	0xbd4ab6fc	-0.049490914
199	0x3e13e348	0.1444217
200	0x3d686860	0.056740165
201	0xbd100411	-0.035160128
202	0x3c9fa688	0.019488588
203	0xbd207be2	-0.039180644
204	0x3de4f602	0.11179735
205	0x3d42fb66	0.047603033
206	0x3cac214f	0.021011977
207	0xbdd8c25c	-0.10583946
208	0xbcc02c00	-0.02345848
209	0x3d200d86	0.039075397
210	0xbc0185bd	-0.007905421
211	0x3dfefc98	0.12450522
212	0x3cdd2e34	0.02699957
213	0xbc8dfcdf	-0.017332492
214	0xbd26a624	-0.040685788
215	0x3cbd66a8	0.02312024
216	0x3d6ead92	0.058271
217	0xbd9a06b6	-0.07520811
218	0xbdc19253	-0.09451737
219	0x3d0ac1dd	0.03387629
220	0x3cc576e4	0.024104543
221	0x3ccb3c59	0.02480905
222	0xbbfb6d18	-0.007672917
223	0x3c59008d	0.01324476
224	0xbde0a665	-0.10969237
225	0xbcffc6c4	-0.031222709
226	0x3d8b41e4	0.06799677
227	0xbda1d742	-0.07902385
228	0xbcee18d5	-0.029064575
229	0xbca2685f	-0.019825159
230	0xbc6bc938	-0.014391236
231	0x3d0c49de	0.034250133
232	0x3d1df648	0.03856495
233	0xbd9956a0	-0.074872255
234	0x3b921060	0.0044575185
235	0xbd121f87	-0.035674598
236	0x3d03857a	0.032109715
237	0xbd58cb5d	-0.052928317
238	0x3cdc7bca	0.026914496
239	0xbda513b2	-0.08060397
240	0x3d6d6282	0.057955272
241	0x3b95f3f3	0.0045762
242	0xbd2b913f	-0.041886564
243	0x3d4487e1	0.047981147
244	0xbd611b33	-0.05495758
245	0xbb562798	-0.0032677408
246	0x3c8a290b	0.016865274
247	0xbd140e1d	-0.036146272
248	0xbdd33012	-0.10311903
249	0xbd8dc91f	-0.069231264
250	0x3ce805fa	0.028323162
251	0xbdcd3dc7	-0.10021549
252	0x3dd7429b	0.10510751
253	0xbbcce845	-0.0062532746
254	0xbb55af59	-0.0032605736
255	0xbc640f63	-0.013919684

bias f4 [64]
0	0x3d475446	0.048664354
1	0xbd6f6a7b	-0.058451157
2	0x3c3118b7	0.010809115
3	0xbd41c242	-0.0473044
4	0x3a096455	0.0005241086
5	0xbb14fe6c	-0.0022734655
6	0xbc4dc12b	-0.012558262
7	0xbcbd900e	-0.02313998
8	0x3da37d07	0.079828314
9	0x3d18e627	0.037328865
10	0x3cd08cc5	0.02545775
11	0xbcbd3242	-0.023095254
12	0x3d38f8b8	0.04515907
13	0xbb8c5dd6	-0.004283647
14	0x3ca1c228	0.019745901
15	0xbce86fe4	-0.028373666
16	0xbc34bae7	-0.011030889
17	0x3cb04679	0.021517979
18	0xbc8e7958	-0.017391846
19	0x3c4dd781	0.012563587
20	0xbd2130a9	-0.039353047
21	0x3c6f1e3f	0.014594614
22	0x3cd278fb	0.025692454
23	0x3bc06996	0.005871962
24	0x3d22b049	0.0397189
25	0x3d00ca3d	0.03144287
26	0x3d885073	0.066559695
27	0xbce7acb9	-0.028280603
28	0x3d091ebd	0.03347658
29	0x3b813582	0.003943146
30	0x3b38749a	0.0028145672
31	0x3cdb42ee	0.026765313
32	0xbc70f613	-0.014707106
33	0xba20a3e0	-0.0006127935
34	0xbd0a340f	-0.033741053
35	0xbdba2ac2	-0.09090187
36	0x3da76d98	0.081752
37	0xbd19f7f3	-0.03758998
38	0x3d56fc7e	0.05248689
39	0xbd2a810d	-0.04162698
40	0x3cbda8dd	0.02315181
41	0xbc8edabb	-0.017438283
42	0xb95ef6db	-0.0002126353
43	0x3d28abd2	0.041179486
44	0x3cf27752	0.029597912
45	0xba27d820	-0.00064027496
46	0x3c6acedc	0.014331546
47	0x3cd17e8f	0.025573043
48	0x3bc16c96	0.005902837
49	0x3d615d37	0.055020537
50	0x3d0018b1	0.031273548
51	0xbc653d10	-0.013991609
52	0xbd61b17c	-0.055100903
53	0x3b91f256	0.0044539375
54	0xbd3ba3d1	-0.045810524
55	0x3cca1746	0.0246693
56	0x3cda4f1d	0.026649052
57	0xbc4faf2c	-0.012676042
58	0x3d9a8a13	0.07545867
59	0xbcffc90a	-0.031223793
60	0x3be5caf7	0.0070127207
61	0xbcda2820	-0.026630461
62	0xbda42cd4	-0.08016363
63	0xbcb2276f	-0.021747319

weight f4 [64, 64]
0	0x3d474ffa	0.048660256
1	0x3e5df5b5	0.21675761
2	0xbe181234	-0.14850694
3	0x3d782a82	0.060587414
4	0x3d31d24a	0.043413438
5	0xbe447da3	-0.19188552
6	0xbe6abac1	-0.22922803
7	0x3d9823f0	0.074287295
8	0xbd89a30c	-0.06720552
9	0x3dd9ddbf	0.10637998
10	0xbe3c0c47	-0.18364058
11	0xbe3f9f39	-0.18713082
12	0x3e0a0f7a	0.13482466
13	0x3e0b50d8	0.13605058
14	0xbddb43bd	-0.107062794
15	0x3e55491c	0.2082867
16	0x3cfdd510	0.030985385
17	0xbdbf9a7a	-0.09355636
18	0x3e6aed72	0.2294214
19	0x3e359049	0.17730822
20	0xbe10e4ae	-0.14149734
21	0x3da63623	0.081157945
22	0xbe098f2d	-0.13433523
23	0x3e0cad77	0.13738047
24	0x3d2014aa	0.039082207
25	0xbe349457	-0.17634712
26	0xbe1f4916	-0.15555224
27	0xbe14623d	-0.144906
28	0xbe208fb5	-0.1567982
29	0xbb507a38	-0.003181113
30	0x3ea72b85	0.3265039
31	0xbb16bb3d	-0.0022999786
32	0xbdb6016e	-0.088869914
33	0xbd3fec41	-0.04685617
34	0x3d8c73f8	0.06858057
35	0xbd4a1056	-0.049331985
36	0xbc797156	-0.015224775
37	0x3ca2e6b6	0.019885402
38	0xbe133eaf	-0.1437938
39	0xbd356837	-0.04428884
40	0xbe471ef7	-0.19445406
41	0xbcf3faf5	-0.029782752
42	0xbdfec774	-0.124403864
43	0xbd6b9c40	-0.05752206
44	0xbe532b7c	-0.20622057
45	0xbd982b81	-0.07430173
46	0xbdce223e	-0.10065125
47	0xbe041940	-0.12900257
48	0xbe94dcff	-0.29074857
49	0x3df2d152	0.11856331
50	0xbdb1f819	-0.08689899
51	0x3e261c90	0.16221833
52	0x3ea67275	0.325092
53	0xbe70d3c5	-0.23518284
54	0xbcfee2d0	-0.031114012
55	0xbd1898b2	-0.037254997
56	0xbe423124	-0.18964058
57	0xbe1a9584	-0.15096098
58	0x3da81395	0.0820686
59	0x3cee8213	0.029114759
60	0x3c7aa520	0.015298158
61	0x3d968fd6	0.07351653
62	0xbdfda001	-0.12384034
63	0xbe2fc544	-0.17165095
64	0x3d432643	0.04764391
65	0xbd8589c9	-0.06520421
66	0x3db330f1	0.08749569
67	0xbd8529a2	-0.065020815
68	0xbe2a3c71	-0.16624619
69	0xbcf2efc3	-0.029655343
70	0x3db8e2e4	0.09027651
71	0xbe71c9c9	-0.23612131
72	0xbda15d15	-0.07879082
73	0x3e8fbe49	0.28074864
74	0x3d208180	0.039186
75	0x3e20e054	0.15710574
76	0xbde4147a	-0.11136718
77	0xbe2918ce	-0.16513368
78	0xbe9eb4f8	-0.30997443
79	0xbdf4b46d	-0.11948476
80	0x3d2ad297	0.04170474
81	0x3e02da0f	0.12778495
82	0xbd07ffce	-0.03320294
83	0x3d2afd1d	0.041745294
84	0xbd86dc38	-0.06584972
85	0xbd730827	-0.059333947
86	0x3e15e74d	0.14639015
87	0xbd9d324b	-0.07675608
88	0xbe13e15c	-0.14441437
89	0x3d5cf67b	0.053946
90	0x3e1dbdb2	0.15404394
91	0x3e46a07f	0.19397162
92	0x3e0cb8d5	0.13742383
93	0xbe2453f3	-0.16047649
94	0xbd86556a	-0.0655926
95	0xbe5c0211	-0.21485163
96	0xbd17d020	-0.037063718
97	0xbd2507bb	-0.040290575
98	0x3dc32c7d	0.0952997
99	0x3d8b502d	0.06802402
100	0x3d1da3dc	0.038486347
101	0x3eaf436f	0.34231135
102	0xbdc6a2ec	-0.09699044
103	0xbd835780	-0.06413174
104	0x3e12e187	0.14343844
105	0xbe9fb96b	-0.3119615
106	0xbb53eda2	-0.0032337685
107	0x3d8fd4c1	0.070230015
108	0x3d9cc7bc	0.07655284
109	0xbe8aa215	-0.27076784
110	0x3d74fdec	0.05981247
111	0x3d28b2e3	0.041186225
112	0x3c885920	0.01664406
113	0xbd6ac7ea	-0.05731956
114	0xbe96a2cd	-0.29421082
115	0x3e8b2fb9	0.27184847
116	0x3e44e3b9	0.19227494
117	0xbd8cd168	-0.068758786
118	0x3dd49529	0.103800125
119	0xbe9776de	-0.29582876
120	0xbc229b5b	-0.009924735
121	0xbdbc2c1b	-0.091881
122	0x3d68c22d	0.056825805
123	0x3e9a1cb9	0.3010004
124	0xbdb9c620	-0.090709925
125	0x3dc9b739	0.098494
126	0x3da35930	0.079759955
127	0xbdfd3890	-0.12364304
128	0xbe467d4b	-0.19383733
129	0xbae83f81	-0.0017719121
130	0x3e04c131	0.12964322
131	0x3e064592	0.13112476
132	0x3d8a3a45	0.06749395
133	0xbd02b8a4	-0.03191437
134	0x3e810d45	0.25205436
135	0x3e0e860e	0.13918325
136	0x3e6ec8dc	0.2331881
137	0x3c8d1105	0.01722003
138	0xbad998f7	-0.0016601373
139	0x3e5c1ce7	0.214954
140	0xbd9deae4	-0.077108175
141	0x3dafc7eb	0.08583053
142	0x3dd4a47d	0.10382936
143	0x3ad0ff14	0.001594516
144	0x3e919761	0.28435805
145	0xbddbcafb	-0.10732075
146	0x3d3131d0	0.043260396
147	0xbe3726f5	-0.17885955
148	0x3d98456e	0.07435118
149	0x3dff35a7	0.12461405
150	0xbabf97c5	-0.0014617374
151	0x3e68ec99	0.22746505
152	0x3df2f86d	0.1186379
153	0xbd4b9f0e	-0.049712233
154	0xbd5b0ab0	-0.05347699
155	0xbe85ae8d	-0.26109734
156	0xbe380df4	-0.17974073
157	0x3b4bd130	0.0031100027
158	0x3d3b97a0	0.045798898
159	0x3d101b24	0.035182133
160	0xbd6edd67	-0.058316614
161	0xbd9b81ba	-0.07593103
162	0xbda7e9f0	-0.08198917
163	0xbd6b60fb	-0.057465535
164	0x3ccbc752	0.024875317
165	0xbe2251f9	-0.15851583
166	0x3ddb1f1e	0.106992945
167	0x3e0c66b7	0.13711058
168	0xbdd4085e	-0.103531584
169	0xbdf9040b	-0.12158974
170	0xbddb9334	-0.10721436
171	0x3daa6082	0.08319189
172	0x3e3f1a29	0.18662323
173	0x39fa150d	0.000476994
174	0xbddacf83	-0.10684111
175	0xbebe0ffe	-0.37121576
176	0x3d4f677c	0.0506358
177	0xbce2e3d9	-0.027696537
178	0xbc50b829	-0.01273922
179	0xbdb63c77	-0.088982515
180	0xbd8c1654	-0.06840196
181	0x3d0016de	0.031271808
182	0xbdedf6e0	-0.11619353
183	0xbc29b523	-0.010358128
184	0x3e879f1f	0.26488587
185	0xbcf09be5	-0.029371211
186	0xbe45e29c	-0.19324726
187	0xbd9cba31	-0.07652701
188	0x3ed0accc	0.40756834
189	0x3c89ab6e	0.016805377
190	0xbc032637	-0.008004717
191	0x3e15be23	0.14623313
192	0x3d82caac	0.06386313
193	0x3c649b68	0.013953067
194	0xbb39f43a	-0.002837433
195	0x3e1a3420	0.15058947
196	0x3e21b793	0.15792684
197	0x3dfee6aa	0.124463394
198	0x3df6dada	0.120534614
199	0x3e693f63	0.22778086
200	0x3e1ce164	0.15320355
201	0xbd09c03b	-0.03363059
202	0xbe3b4ea2	-0.18291715
203	0x3d6ee550	0.05832416
204	0xbdd493a8	-0.10379726
205	0x3cc92ead	0.02455839
206	0x3e4536cd	0.19259186
207	0x3d8d821c	0.06909582
208	0x3db28d1c	0.08718321
209	0xbe770b2b	-0.24125354
210	0xbd4bdbc4	-0.04977013
211	0x3e34b3de	0.17646739
212	0x3d984070	0.074341655
213	0x3d3c1502	0.045918472
214	0xbe34dbaa	-0.1766192
215	0x3e5f3a2b	0.21799533
216	0x3e322842	0.1739817
217	0xbe840125	-0.25782123
218	0x3ccb09b6	0.024784904
219	0xbec11086	-0.3770792
220	0xbde72914	-0.11287132
221	0x3c94a36a	0.018144328
222	0x3dd63273	0.10458841
223	0x3e4a7256	0.19770178
224	0x3ca5b64a	0.020228524
225	0x3db46bb4	0.08809605
226	0xbd224099	-0.039612386
227	0xbd8a43b8	-0.067511976
228	0x3d2c0539	0.04199717
229	0xbe874652	-0.26420838
230	0x3db09e6b	0.08623966
231	0x3d42a41b	0.047519784
232	0xbe8f7a5c	-0.2802304
233	0x3c1be66a	0.009515384
234	0xbe25a8e8	-0.16177714
235	0xbd8bc4af	-0.06824624
236	0x3a6e53bf	0.00090914586
237	0xbca444e0	-0.020052373
238	0xbde0512d	-0.10952983
239	0xbd0551f1	-0.03254885
240	0x3dbb41f7	0.09143441
241	0xbe050350	-0.12989545
242	0x3e06b8f2	0.13156489
243	0xbe688788	-0.22707951
244	0xbe2a0136	-0.16602024
245	0x3d88dc14	0.066826016
246	0xbe3667fe	-0.17813107
247	0x3e359a93	0.17734747
248	0x3ce6eb59	0.028188394
249	0xbdc43145	-0.0957971
250	0x3db954e6	0.09049396
251	0xbe185bbf	-0.14878748
252	0x3e0fdd86	0.14049348
253	0x3e330a2e	0.17484352
254	0xbdd72f86	-0.10507111
255	0x3e31e96d	0.17374201

bias f4 [64]
0	0x3ded6f74	0.115935236
1	0xbdf8df04	-0.12151912
2	0x3d5f67a7	0.05454221
3	0x3d4f88df	0.05066764
4	0xbd2cb251	-0.042162243
5	0xbe0c7ed1	-0.13720252
6	0xbdda725c	-0.106663436
7	0x3ddfc45e	0.10926126
8	0x3c9ec22f	0.019379703
9	0xbe1632e3	-0.14667849
10	0x3d974ec4	0.0738807
11	0x3d8efc33	0.06981697
12	0xbd3682f0	-0.044558465
13	0xbc17f36c	-0.009274345
14	0xbdbca0ee	-0.092103824
15	0x3e529516	0.20564684
16	0xbd9f11bf	-0.07767057
17	0x3d25905b	0.04042087
18	0xbdf04c61	-0.11733318
19	0x3c74218b	0.014900575
20	0xbd73e63e	-0.059545748
21	0xbd05c4b2	-0.032658286
22	0x3dfcc926	0.123430535
23	0xbd390ed2	-0.04518015
24	0x3df92e91	0.12167085
25	0xbe1c654b	-0.15273015
26	0x3d542f91	0.051803175
27	0x3d9a0c41	0.075218685
28	0x3dd854dc	0.10563061
29	0x3d9ce966	0.07661705
30	0xbd592649	-0.053015027
31	0x3c0fed46	0.008784598
32	0xbdae0b0b	-0.084982
33	0x3c9bc8d4	0.01901666
34	0xbd9a0dc6	-0.07522158
35	0x3c5f970e	0.013646854
36	0xbe12e411	-0.14344813
37	0xbcaf30b5	-0.02138553
38	0xbda4935a	-0.080359176
39	0x3e2010e2	0.1563144
40	0xbd4b972e	-0.049704723
41	0x3d656f20	0.05601418
42	0xbce3c88d	-0.027805591
43	0xbd8c7bc9	-0.06859548
44	0xbdb1b852	-0.086777344
45	0xbae562f3	-0.0017500803
46	0x3e019da8	0.12657797
47	0x3e14c30d	0.14527531
48	0x3cff86bc	0.031192176
49	0xbd571874	-0.052513555
50	0xbda722a5	-0.08160905
51	0xbdd94e05	-0.10610584
52	0x3d802956	0.06257884
53	0x3dd2a4a0	0.10285306
54	0x3d5a7e41	0.05334306
55	0x3c4eca5c	0.012621488
56	0xbca5415c	-0.020172767
57	0x3c73450c	0.014848005
58	0x3dcc3d1e	0.09972595
59	0x3d8ce221	0.06879068
60	0xbcd8e3ed	-0.026475871
61	0xbe12126e	-0.14264843
62	0xbdd5133d	-0.1040406
63	0xbcc81287	-0.024422897

weight f4 [7, 64]
0	0x3a00e137	0.0004916372
1	0x3ea0fa3a	0.31440908
2	0x3e22a2f3	0.15882473
3	0xbe275973	-0.16342716
4	0x3dfd63cc	0.1237255
5	0xbebadd0c	-0.3649677
6	0x3e407a8c	0.18796748
7	0xbee07a67	-0.43843386
8	0x3e193c52	0.14964417
9	0xbe27ce88	-0.16387379
10	0x3dcc700d	0.099823095
11	0x3ea77cf3	0.32712516
12	0xbd944fed	-0.07241807
13	0x3e198b48	0.14994538
14	0x3d1efddf	0.03881633
15	0x3e0fee10	0.14055657
16	0xbd3744c8	-0.04474333
17	0x3eba076e	0.36333793
18	0x3d8292d2	0.0637566
19	0xbee38b1e	-0.44442075
20	0xbe3a9c18	-0.18223608
21	0xbd5a7424	-0.053333417
22	0x3e3886fc	0.18020242
23	0xbe9dff8f	-0.30859038
24	0x3c0cf9c0	0.008604467
25	0xbe13a3f5	-0.14418013
26	0xbe49e092	-0.19714573
27	0x3e681817	0.2266544
28	0x3e59263e	0.21205994
29	0xbd88830d	-0.06665621
30	0x3e9b3b94	0.30318892
31	0x3e66cc5a	0.22538891
32	0x3e44b79f	0.19210671
33	0xbcca98a5	-0.02473099
34	0xbe95d6d9	-0.29265478
35	0xbe39a424	-0.18129021
36	0xbeaad17c	-0.3336295
37	0x3cd2ba21	0.025723519
38	0x3e1e6960	0.15469885
39	0x3e6a4bb1	0.22880436
40	0x3e943837	0.2894914
41	0xbe93c458	-0.28860736
42	0xbe0f8da1	-0.14018871
43	0xbe946231	-0.28981164
44	0x3e67c858	0.22635019
45	0x3e99c58b	0.30033526
46	0x3e0b498f	0.13602279
47	0x3e85ca63	0.2613097
48	0xbd923bfa	-0.07140346
49	0x3e488dd4	0.19585353
50	0x3ebf4146	0.37354487
51	0xbe61c545	-0.22047909
52	0x3e1dd4c6	0.15413198
53	0x3ea4c3fa	0.32180768
54	0xbed7ae6a	-0.42125255
55	0xbd4e3d73	-0.05035157
56	0xbceb3544	-0.028711922
57	0x3d4bc8cd	0.049752045
58	0x3c50508c	0.012714516
59	0x3e7c9a9b	0.24668352
60	0x3e8cf647	0.27531645
61	0x3e13f383	0.14448361
62	0xbd61441d	-0.0549966
63	0x3dde463e	0.108532414
64	0x3da37417	0.07981127
65	0xbea049c1	-0.3130627
66	0xbd45aaa3	-0.048258435
67	0x3e2ac11c	0.16675228
68	0xbe3e9d0b	-0.18614595
69	0x3e54a3ab	0.2076556
70	0xbdaa3925	-0.08311681
71	0x3e35e5c4	0.1776343
72	0x3e9867bd	0.29766646
73	0xbe6bc847	-0.23025618
74	0x3ee01fea	0.43774348
75	0xbe7ceae2	-0.24698976
76	0xbe1db8f1	-0.15402581
77	0x3d8c4c53	0.06850495
78	0x3e9d7528	0.30753446
79	0x3d3749ea	0.044748224
80	0x3e00542e	0.12532112
81	0xbc1b9204	-0.009495262
82	0xbcce7157	-0.025200529
83	0xbdf4bd51	-0.11950172
84	0xbde1fc96	-0.11034505
85	0x3eb525fc	0.35380542
86	0xbf07b6f1	-0.5301352
87	0xbd073cd8	-0.03301701
88	0xbeff3639	-0.49846056
89	0x3e14c009	0.1452638
90	0x3e977fa3	0.29589567
91	0xbedfe492	-0.43729073
92	0x3eaf0a3f	0.34187505
93	0xbdd0a923	-0.1018851
94	0x3d960571	0.073252566
95	0xbd6e7742	-0.058219202
96	0x3ea31c70	0.31857634
97	0xbdf797ad	-0.12089477
98	0x3eb43330	0.35195303
99	0xbe9831aa	-0.2972539
100	0xbe9fffe9	-0.3124993
101	0xbeeeb5d9	-0.46623114
102	0xbca4ae72	-0.020102713
103	0x3e741cc5	0.238391
104	0x3e9abab7	0.30220577
105	0x3e64ab4e	0.22330973
106	0x3e71061a	0.23537484
107	0xbe950af6	-0.29109925
108	0xbf0121e3	-0.5044233
109	0xbe14320c	-0.14472216
110	0xbeeb2392	-0.45925575
111	0x3df2e80d	0.118606664
112	0x3e51d353	0.2049077
113	0xbeabd637	-0.3356187
114	0x3d9b1416	0.075721905
115	0xbdf9f53a	-0.122049764
116	0x3cdeb684	0.02718664
117	0xbe8a99be	-0.2707042
118	0x3d0b6d7b	0.034039956
119	0x3e9b8b25	0.30379596
120	0xbefbd24b	-0.49183878
121	0xbec0d4bd	-0.37662306
122	0x3e3ddede	0.18542048
123	0xbe813f9b	-0.2524384
124	0x3edf5b18	0.43624187
125	0xbde86535	-0.11347429
126	0x3dee5132	0.116365805
127	0xbeee7c35	-0.46579137
128	0x3ea7f6d4	0.32805502
129	0xbdd7c258	-0.10535115
130	0x3e18c3b6	0.14918408
131	0x3e6e8097	0.2329124
132	0xbebc941e	-0.36831754
133	0xbe059246	-0.1304408
134	0xbe0cee5b	-0.137628
135	0xbe3e3f61	-0.18578865
136	0x3e012475	0.12611564
137	0xbcdc5672	-0.02689669
138	0x3d9a9bb1	0.07549227
139	0x3e669059	0.22516002
140	0x3d13d48d	0.036091376
141	0xbeaed8c7	-0.34149763
142	0xbeb67e70	-0.3564334
143	0x3d1c3660	0.038137794
144	0x3e913f4e	0.2836861
145	0xbe9bb3fc	-0.30410755
146	0xbde2059f	-0.110362284
147	0x3dcba404	0.09943393
148	0x3ec3dec0	0.38255882
149	0xbe5d8e8a	-0.21636406
150	0x3e255cb9	0.16148652
151	0xbe7def52	-0.24798325
152	0x3eacf48f	0.33780333
153	0xbe5b26ad	-0.21401472
154	0xbe73541f	-0.23762558
155	0xbe9f8163	-0.31153402
156	0xbe75cea6	-0.24004611
157	0xbcd07f65	-0.025451371
158	0xbda5d6e6	-0.08097629
159	0xbeeb2a52	-0.45930725
160	0xbee43344	-0.44570363
161	0x3e9936b7	0.29924557
162	0xbea51723	-0.32244214
163	0xbe5d7e5e	-0.21630237
164	0xbe423bd7	-0.1896814
165	0x3ed71362	0.42006975
166	0xbdbc4e44	-0.091946155
167	0x3e3358fb	0.17514412
168	0xbed21791	-0.41033605
169	0xbe1d4b78	-0.1536082
170	0xbee5e9be	-0.44904894
171	0x3d44ec24	0.048076764
172	0xbe4ddbc0	-0.20103359
173	0x3e380e8c	0.17974299
174	0xbe7791df	-0.24176739
175	0xbf256607	-0.64608806
176	0x3eecdfa8	0.46264386
177	0x3ecc8386	0.39944094
178	0xbd93a6be	-0.07209538
179	0xbe1feff6	-0.15618882
180	0xbe9574e6	-0.2919075
181	0xbe7716c2	-0.24129775
182	0x3e986046	0.2976095
183	0x3eec279d	0.46123973
184	0xbca00dbf	-0.019537805
185	0x3df01d5f	0.11724352
186	0xbec672de	-0.38759512
187	0xbde4d99d	-0.11174319
188	0xbce54c1a	-0.02799039
189	0xbe828d50	-0.25498438
190	0xbec70d30	-0.3887725
191	0x3e57108a	0.21002403
192	0x3e7a1e75	0.24425681
193	0x3d779b62	0.06045092
194	0xbe7b8a87	-0.24564563
195	0xbe9663fe	-0.29373163
196	0xbe1e569a	-0.15462723
197	0xbe61b1ad	-0.22040434
198	0xbe3ea3cb	-0.1861717
199	0xbda9c511	-0.082895406
200	0xbefb9e72	-0.49144322
201	0xbcc7e526	-0.024401259
202	0xbde3dd32	-0.11126174
203	0xbe8d6762	-0.27617937
204	0x3eec97a2	0.46209437
205	0x3e91cdf3	0.2847744
206	0xbe80037a	-0.25002652
207	0x3e2ed373	0.17072849
208	0x3e7a2c13	0.24430875
209	0xbe60e404	-0.21961981
210	0xbbeccfd6	-0.0072269244
211	0xbe67289d	-0.22574086
212	0x3d4e55b9	0.05037472
213	0xbdf886c7	-0.12135082
214	0x3e3df5df	0.18550824
215	0xbda4f65a	-0.080548
216	0xba5d17e5	-0.00084340415
217	0xbdbe954e	-0.09305821
218	0xbd429ee5	-0.047514815
219	0xbdabee7e	-0.08395098
220	0xbee362ae	-0.44411224
221	0x3e8ac7fb	0.27105698
222	0x3ebe62a4	0.37184632
223	0x3dfc5e42	0.12322666
224	0x3e1ea417	0.15492283
225	0x3e87047e	0.26370615
226	0x3ee0d447	0.43911955
227	0x3ec1e992	0.37873513
228	0x3dfb1f6f	0.12261855
229	0x3d227cb8	0.039669722
230	0xbd3d3cc2	-0.04620052
231	0x3d4a942e	0.04945772
232	0xbde86f3e	-0.11349343
233	0xbab2c6be	-0.0013639552
234	0x3ec2d6db	0.38054547
235	0x3cbf4abd	0.023351068
236	0x3ed6e487	0.41971228
237	0x3e70151f	0.23445557
238	0x3e051a29	0.1299826
239	0x3e5d56f0	0.21615195
240	0xbf054ea8	-0.52073145
241	0xbe2706c8	-0.1631118
242	0xbe12e3fd	-0.14344783
243	0xbdc58d50	-0.09646094
244	0xbee6cdb1	-0.45078805
245	0x3b7b4a03	0.0038343675
246	0x3d725657	0.05916437
247	0xbea582de	-0.32326406
248	0x3ed3fcfa	0.41403943
249	0x3ca0498b	0.019566318
250	0x3ed1e02c	0.40991342
251	0x3d33ad61	0.04386652
252	0x3cf96646	0.030444276
253	0x3ef4fa32	0.47847134
254	0x3e89dfe6	0.26928633
255	0xbe21183d	-0.15731902

bias f4 [7]
0	0xbdea134b	-0.11429461
1	0xbcc8fcbd	-0.024534578
2	0x3e2d027b	0.16895477
3	0x3dc978ca	0.09837492
4	0xbe8e4561	-0.27787307
5	0x3dccde05	0.10003284
6	0x3e16b77c	0.14718431

weight f4 [64, 908]
0	0xbb714b3c	-0.0036818525
1	0xbeb02608	-0.34404016
2	0xbf8a4ce2	-1.0804713
3	0xbc89f3aa	-0.01683982
4	0x40037be4	2.0544367
5	0xbda78bc0	-0.08180952
6	0xbe096be9	-0.1342007
7	0x3d41cfa7	0.047317173
8	0x3e18d8af	0.14926408
9	0xbe2ddaae	-0.16977951
10	0x3eb41a56	0.35176343
11	0xbf2ea423	-0.682192
12	0xbfb055cd	-1.3776184
13	0xbec2d840	-0.3805561
14	0xbcc2b85e	-0.023769554
15	0xbf6a9e7d	-0.91648084
16	0xc02d838b	-2.7111537
17	0x3ef24494	0.47317946
18	0x3ef01375	0.46889845
19	0xbf3ac6a0	-0.7295933
20	0xbf353b66	-0.7079376
21	0x3f7b95a5	0.98275214
22	0x3ed93439	0.42422655
23	0xbf5916a8	-0.84800196
24	0x3ecbf39d	0.398343
25	0x3ea975ad	0.33097592
26	0xbef89dcf	-0.48557898
27	0x3e8ed8b6	0.27899712
28	0x3e0c0ffe	0.13677976
29	0x3ef08e45	0.46983543
30	0xbf1e0b2a	-0.61735785
31	0x3ec584ad	0.38577786
32	0x3fd8fad9	1.6951553
33	0x3ed38446	0.41311854
34	0xbec0da53	-0.37666568
35	0x3f8d8ab9	1.105796
36	0xbf3d3eab	-0.7392375
37	0xbe32acc6	-0.1744872
38	0xbd390301	-0.04516888
39	0xbf0533c9	-0.5203214
40	0xbe85fc32	-0.26168972
41	0xbe16a841	-0.14712621
42	0xbd1da864	-0.038490668
43	0xbf14ed6e	-0.5817479
44	0x3ec4fa8e	0.38472408
45	0x3ddfd554	0.10929361
46	0xbf3928da	-0.7232796
47	0x3e4da63f	0.20082949
48	0x3f0e7cda	0.5565926
49	0x3ec273b2	0.37978894
50	0x3ba3b82b	0.0049963198
51	0xbeb3a615	-0.35087648
52	0xbf19b7a8	-0.6004586
53	0x3f1acf28	0.60472345
54	0xbd52d42d	-0.051471878
55	0x3f6af340	0.9177742
56	0xbf82101d	-1.0161167
57	0xbd712c68	-0.05888024
58	0x3e804b0a	0.2505725
59	0xbe990e0d	-0.29893532
60	0x3e2d9983	0.16953091
61	0xbf018693	-0.5059597
62	0xbc87be5a	-0.016570259
63	0xbed248fd	-0.4107131
64	0x3ebe99b2	0.37226635
65	0xbf6302ad	-0.8867596
66	0xbe2a09ed	-0.16605349
67	0xbf772bc9	-0.96551186
68	0x3de75d9d	0.11297152
69	0xbef20a0a	-0.47273284
70	0xbe824fc2	-0.25451475
71	0xbec794b6	-0.38980645
72	0xbdcfc675	-0.101452745
73	0xbf2cb3a8	-0.67461634
74	0xbca596ed	-0.020213569
75	0xbf479e06	-0.779755
76	0x3fb9bfa0	1.4511604
77	0x3ee3149f	0.4435167
78	0x3e8b3d6c	0.271953
79	0x3ef69e4a	0.4816764
80	0x3deba05e	0.11505197
81	0x3f564184	0.8369372
82	0x3f1f0aea	0.6212603
83	0xbe151e30	-0.14562297
84	0x3f277827	0.6541771
85	0xbe9b4ab5	-0.30330434
86	0xbd356c3b	-0.04429267
87	0x3f3ed207	0.74539226
88	0xbeadb022	-0.3392344
89	0x3e984283	0.29738244
90	0x3eaaf971	0.33393434
91	0xbed6e1ac	-0.4196905
92	0x3ebb762f	0.36613604
93	0xbe590170	-0.21191955
94	0xbe3d2066	-0.1846939
95	0x3f23367e	0.63755023
96	0xbe999c13	-0.30001888
97	0xbf01088d	-0.5040367
98	0xbf0b8f2d	-0.54515344
99	0xbf905b6a	-1.1277897
100	0xbf65883b	-0.89660996
101	0xbf8e38e1	-1.1111108
102	0xbdbf51f6	-0.09341805
103	0xbf344d7d	-0.7043074
104	0x3f391536	0.7229799
105	0xbf018f66	-0.50609434
106	0x3f727a3c	0.94717765
107	0x3e5de006	0.2166749
108	0xbf330cbf	-0.69941324
109	0x3f1ea686	0.61972845
110	0x3e4a4022	0.19751027
111	0x3e828a97	0.2549636
112	0x3eb16672	0.34648472
113	0x3ed4c6c6	0.41557902
114	0xbe15e8c1	-0.1463957
115	0x3f31bd73	0.694297
116	0xbe7b7a16	-0.24558291
117	0xbe7e1a5a	-0.2481474
118	0xbba7690b	-0.0051089576
119	0xbefdf557	-0.49601242
120	0x3f1ed9fd	0.62051374
121	0xbea7b719	-0.3275688
122	0x3f4717e8	0.77770853
123	0xbecd11fb	-0.4005278
124	0x3f8b1db3	1.0868438
125	0xbf7ce49a	-0.9878632
126	0xbc581b97	-0.013190172
127	0xbef88c7e	-0.48544687
128	0x3f736270	0.9507208
129	0x3ba00341	0.0048832004
130	0xbdae892a	-0.08522256
131	0x3d22b396	0.039722048
132	0xbd00e1b7	-0.03146526
133	0x3eda18f8	0.42597175
134	0xbb946f56	-0.004529874
135	0x3f26a1c9	0.65090615
136	0xbe03f31d	-0.12885709
137	0x3e097b4c	0.1342594
138	0xbe2707e6	-0.16311607
139	0xb95a99be	-0.00020847374
140	0x401086c7	2.2582262
141	0xbf39313e	-0.7234076
142	0x3cfce8c1	0.030872704
143	0x3fa7d9e0	1.3113365
144	0x3f6079a5	0.87685615
145	0xbf508d7d	-0.81465894
146	0x3e3fcac2	0.1872969
147	0x3debb889	0.11509807
148	0xbff36fcc	-1.9018493
149	0xbc336a84	-0.010950688
150	0x3fc837a1	1.5641977
151	0xbf29d973	-0.66347426
152	0xbc7ac499	-0.015305662
153	0xbf1859b0	-0.5951185
154	0xbd95ebce	-0.07320367
155	0x3f119b1f	0.5687732
156	0x3ea951e2	0.33070284
157	0xbf58d044	-0.8469279
158	0xbf84b099	-1.0366393
159	0xbe626c80	-0.22111702
160	0x3d879969	0.066210575
161	0xbf1403bc	-0.578182
162	0xbe64e109	-0.22351469
163	0x3f1828bc	0.59437156
164	0x3f75bde0	0.9599285
165	0x3ed64175	0.41846815
166	0x3e4d7daf	0.20067476
167	0x3d8c7fc8	0.0686031
168	0xbcf71d9f	-0.030165492
169	0xbf6c6238	-0.9233737
170	0xbdbb2751	-0.091383584
171	0xbee9e6a7	-0.45683786
172	0xbf89ff67	-1.0781068
173	0x3de12c90	0.10994828
174	0xbcef9d41	-0.02924979
175	0xbddf3324	-0.10898426
176	0x3f4976ea	0.78697073
177	0xbf5082d6	-0.8144964
178	0xbc9d31a0	-0.019188702
179	0xbfa256df	-1.2682761
180	0xbe323477	-0.17402826
181	0xbec71e28	-0.38890195
182	0x3d8f75a3	0.07004859
183	0xbee5c0aa	-0.44873554
184	0xbfacc882	-1.349869
185	0xbf6124e7	-0.87946934
186	0x3e5aed19	0.21379508
187	0xbfc0aeba	-1.5053322
188	0x3d5a5918	0.053307623
189	0x3fcef933	1.61698
190	0xbf28f36a	-0.6599642
191	0x3e0339bc	0.12814993
192	0x3cdf0af2	0.027226899
193	0xbed5a9f2	-0.4173122
194	0xbed12015	-0.4084479
195	0x3e4f763d	0.20259948
196	0xbec6ddca	-0.38841087
197	0x3d5c8e8d	0.053846885
198	0x3e81f2b5	0.25380483
199	0xbcb27864	-0.021785922
200	0x3f9b79a1	1.2146493
201	0xbcbd89c5	-0.023136983
202	0x3e671328	0.22565901
203	0x3f82b8ad	1.0212609
204	0xbea200a8	-0.31641126
205	0xbccf9d73	-0.025343632
206	0x3e2c9d94	0.16856986
207	0xbceeb48a	-0.029138822
208	0xbfa3a162	-1.2783625
209	0x3ddc8879	0.107682176
210	0xbe286604	-0.16445166
211	0xbfb03724	-1.3766828
212	0x40046e80	2.0692444
213	0xbd81d647	-0.06339698
214	0xbeb00f31	-0.3438659
215	0x3fbca6d8	1.4738417
216	0xbf15a7d2	-0.584592
217	0xbf6a6517	-0.915605
218	0xbdf40f9c	-0.1191704
219	0xbea091ba	-0.3136118
220	0xbebca05b	-0.36841092
221	0xbe1d284e	-0.15347406
222	0xbc01463f	-0.007890283
223	0x3e10e194	0.14148551
224	0x3d1c4f72	0.038161702
225	0x3c9f6d42	0.019461278
226	0x3dff8f73	0.12478533
227	0x3ea05733	0.31316528
228	0xbf296af5	-0.6617883
229	0x3eec93e8	0.46206594
230	0xbc9b8a34	-0.018986799
231	0x3ea4d2d5	0.32192102
232	0x3e909fd6	0.28246945
233	0xbe59001a	-0.21191445
234	0xbe9a2564	-0.30106652
235	0x3f661b0d	0.89885026
236	0xbe7e3b48	-0.24827302
237	0xbfc42330	-1.5323238
238	0xbe00ae1d	-0.12566419
239	0xbfc7c6d2	-1.560755
240	0x3dd8f126	0.105928704
241	0x3cefceeb	0.02927347
242	0x3f5535a0	0.8328495
243	0x3dcc0c97	0.09963339
244	0x3e20625b	0.1566252
245	0xbd20369e	-0.039114587
246	0x3cfec880	0.031101465
247	0x3ec16740	0.37774086
248	0x3ea36689	0.31914166
249	0x3ebe9f57	0.37230942
250	0x3e57e3a7	0.21082936
251	0x3f194bae	0.59881103
252	0x3ec965ea	0.39335567
253	0x3f8fee29	1.1244556
254	0x3eac1450	0.33609247
255	0x3f0ad2cf	0.5422792

bias f4 [64]
0	0x3e19c3dd	0.15016122
1	0xbfbbbdda	-1.4667313
2	0xbfcea1f8	-1.6143179
3	0x3f75a1c2	0.9594995
4	0x3f1e21bf	0.6177024
5	0xbe2ee1d3	-0.17078333
6	0x3f08b81a	0.53405917
7	0xbfb248fc	-1.3928523
8	0x3edc9f61	0.43090346
9	0xbf87dcfc	-1.0614314
10	0xbf3b7287	-0.7322163
11	0x3f652cd8	0.8952155
12	0x3ec1529e	0.37758344
13	0xbec5967b	-0.3859137
14	0x3f904b0c	1.1272902
15	0xbf855201	-1.0415651
16	0x3ed004ad	0.40628567
17	0x3f521497	0.8206267
18	0xbf8c5409	-1.0963145
19	0x3e02e605	0.12783058
20	0xbfabd91c	-1.3425632
21	0x3f3b9bb4	0.7328446
22	0x3fa293b8	1.270133
23	0x3f5c9f90	0.86180973
24	0xbf934d6a	-1.1508
25	0x3edd83c5	0.43264595
26	0x3e424955	0.18973286
27	0x3f30321b	0.68826455
28	0x3f3ec7f6	0.74523866
29	0xbf1112d2	-0.5666934
30	0xbf3a8bb1	-0.728694
31	0x3f5fdb8f	0.87444395
32	0x3eb75d44	0.35813344
33	0x3f8a5ce4	1.0809598
34	0x3fbbbe21	1.4667398
35	0x3f76d0d9	0.96412426
36	0xbf01a31d	-0.50639516
37	0xbed1b140	-0.40955544
38	0x3f10f7a2	0.5662786
39	0x3ef59ae0	0.47969723
40	0xbf2acde9	-0.66720444
41	0xbde0b9b3	-0.10972919
42	0x3f1c855f	0.6114101
43	0x3f7dbf3c	0.99119925
44	0x3e0ab7f7	0.1354674
45	0xbdbafca8	-0.091302216
46	0xbf39c713	-0.7256939
47	0x3e04cf58	0.1296972
48	0x3fb81d43	1.438393
49	0x3f6c534e	0.9231461
50	0x3d0b1dfb	0.03396414
51	0x3f1adccd	0.60493165
52	0x3f359999	0.70937496
53	0x3f3a60ff	0.72804254
54	0xbf7d12b8	-0.9885669
55	0x3d073119	0.033005808
56	0xbf77e432	-0.96832573
57	0x3f191326	0.59794843
58	0x3f377f7b	0.71678895
59	0xbfeb2a3e	-1.8372266
60	0x3f4a35f0	0.7898855
61	0x3f27d2a8	0.6555581
62	0x3f8a63f0	1.0811749
63	0x3faa0b37	1.3284672

weight f4 [64, 64]
0	0x3ed977ca	0.42474204
1	0x3e470803	0.1943665
2	0x3e7d452f	0.24733423
3	0x3e2c74f5	0.1684149
4	0xbea93273	-0.33046302
5	0xbe8b8ab4	-0.2725426
6	0xbe2006b1	-0.15627553
7	0x3f452cfb	0.7702176
8	0xbe880176	-0.26563615
9	0x3f38ee9a	0.7223908
10	0x3e8d3f99	0.27587584
11	0xbdafcd69	-0.08584101
12	0xbdc4e2b5	-0.096135534
13	0x3f54b3d8	0.8308692
14	0xbe60c8a0	-0.21951532
15	0x3f1bafe9	0.6081529
16	0xbe2b20b7	-0.16711698
17	0xbf158ffb	-0.5842282
18	0x3f2555a3	0.64583796
19	0xbda99d6f	-0.08281981
20	0xbe0144e4	-0.12623936
21	0xbf9d8e36	-1.2309024
22	0xbe526dcd	-0.20549698
23	0xbd97f390	-0.07419503
24	0x3d08a241	0.033357862
25	0x3e398b1d	0.18119474
26	0x3ed447f4	0.41461146
27	0xbe803fda	-0.25048715
28	0xbf7c3e9c	-0.98533034
29	0x3df73509	0.120706625
30	0x3ef6c722	0.481988
31	0xbed9b7ae	-0.4252295
32	0xbc3c9f20	-0.011512548
33	0x3d7807a9	0.06055418
34	0x3e4dd3ac	0.20100278
35	0xbf12a5d8	-0.5728431
36	0xbeefc47e	-0.468296
37	0x3f9dfce4	1.2342801
38	0xbe40d574	-0.18831426
39	0xbe2a794a	-0.1664783
40	0x3e962acf	0.29329535
41	0xbf23a90a	-0.6392981
42	0xbeb11ff3	-0.34594688
43	0xbf4482f8	-0.7676234
44	0xbe7e67d2	-0.24844292
45	0x3f22a8c0	0.6353874
46	0x3e5a68dc	0.21329063
47	0x3f9bedd1	1.2181951
48	0xbe8d6506	-0.27616137
49	0x3e753db7	0.23949324
50	0xbf210b90	-0.6290827
51	0x3e1ef939	0.15524758
52	0x3daaa4a1	0.08332182
53	0xbeecac78	-0.46225333
54	0xbe8d6657	-0.27617142
55	0x3f2310eb	0.6369769
56	0x3f8b28fc	1.0871882
57	0xbf0d4fc4	-0.5519984
58	0xbf7077e4	-0.9393294
59	0x3f6d9147	0.927998
60	0xbea08853	-0.31354007
61	0x3ed227f8	0.4104612
62	0xbef57daa	-0.47947437
63	0xbdc1f9a0	-0.0947144
64	0xbe6e1151	-0.23248793
65	0xbeaeb75c	-0.34124267
66	0x3ed666b1	0.41875222
67	0xbe447c98	-0.19188154
68	0x3f3574d4	0.7088139
69	0xbf412a2e	-0.75454986
70	0x3e06e833	0.13174514
71	0x3e56b5e8	0.20967829
72	0xbf2983a6	-0.66216505
73	0xbf00dc21	-0.5033589
74	0xbead6893	-0.33868846
75	0x3e1d3d60	0.15355444
76	0x3e307600	0.17232513
77	0x3ed47133	0.41492614
78	0xbf052c48	-0.5202069
79	0x3e836af1	0.25667527
80	0x3f1c4307	0.61039776
81	0xbeb06660	-0.34453106
82	0xbe9186ea	-0.28423244
83	0x3f4c5cb9	0.79828984
84	0xbe909e95	-0.28245988
85	0x3e0bc8fb	0.13650887
86	0xbe69f0e9	-0.22845806
87	0xbe4f984f	-0.20272945
88	0xbe48766b	-0.19576423
89	0x3e7fc05b	0.24975722
90	0xbf5b0d57	-0.8556723
91	0x3f157a03	0.583893
92	0xbeb46368	-0.3523209
93	0x3e334bfb	0.17509453
94	0xbf271519	-0.6526657
95	0xbe065817	-0.13119541
96	0x3f2f90c4	0.6858027
97	0xbe196f94	-0.1498397
98	0xbf29105f	-0.66040605
99	0xbe4d2151	-0.2003224
100	0xbf35af65	-0.70970756
101	0x3f2d70b9	0.67750126
102	0x3f16938a	0.58818877
103	0xbf285bdf	-0.65765184
104	0x3ec09e0f	0.3762059
105	0xbdd81e0a	-0.105526045
106	0x3ec388a6	0.38190192
107	0xbeb646ea	-0.35600978
108	0xbf15cee0	-0.5851879
109	0x3f418de2	0.7560712
110	0x3ea2f838	0.3183
111	0xbf970181	-1.1797334
112	0xbea342cf	-0.31886908
113	0xbdd3e76d	-0.10346875
114	0xbf5a2f5c	-0.85228515
115	0xbfde4e5d	-1.7367665
116	0xbdc0d728	-0.09416038
117	0x3f38310d	0.71949846
118	0x3f78a4df	0.97126573
119	0xbf8c4ce9	-1.0960971
120	0x3e5816f5	0.21102507
121	0xbeea6365	-0.45778957
122	0xbd164226	-0.036684178
123	0x3ee5bd6e	0.44871086
124	0xbe090745	-0.1338168
125	0x3ef28664	0.47368157
126	0x3ec04377	0.37551472
127	0xbd0e21c3	-0.034700166
128	0x3f234352	0.637746
129	0xbe5e6a60	-0.21720266
130	0x3e3482cb	0.17628019
131	0xbd13bd50	-0.036069214
132	0x3e0a5ce1	0.13511993
133	0x3f9b2e3f	1.2123488
134	0x3f8cccfe	1.1000059
135	0xbe3f1c91	-0.18663241
136	0xbf1d96ee	-0.61558425
137	0xbd460c97	-0.04835185
138	0x3efedcb2	0.49777752
139	0x3f84331e	1.03281
140	0xbdc2e4fd	-0.09516332
141	0x3f7f05eb	0.99618405
142	0x3ce981ea	0.02850433
143	0xbf5188fa	-0.81849635
144	0xbf15e02f	-0.585452
145	0x3ee4f98b	0.44721636
146	0x3f48301b	0.78198403
147	0x3f1ac6d9	0.6045967
148	0x3f1d1de5	0.6137374
149	0xbf58c31c	-0.84672713
150	0xbefec218	-0.49757457
151	0xbe008a5f	-0.12552784
152	0x3e924605	0.28569046
153	0xbe3a6a88	-0.18204701
154	0xbebcb31b	-0.36855397
155	0xbeda3e81	-0.42625812
156	0x3f17a81b	0.59240884
157	0xbea835b0	-0.3285346
158	0xbe885977	-0.26630756
159	0x3f371741	0.7151986
160	0x3fb68916	1.4260585
161	0xbe5c7050	-0.21527219
162	0xbfa5912f	-1.2934932
163	0xbd6716f3	-0.05641837
164	0xbdd9a76e	-0.10627638
165	0xbf2b93a5	-0.6702216
166	0xbe102eb3	-0.14080314
167	0xbfd286ba	-1.6447365
168	0x3e55f6dc	0.2089495
169	0xbf87aae6	-1.0599029
170	0x3f1e54d2	0.61848176
171	0xbea56f9b	-0.3231171
172	0xbfbc89e1	-1.4729577
173	0x3f0c9cb5	0.54926616
174	0xbea2a2cc	-0.3176483
175	0x3ed8adc9	0.42320088
176	0xbd01906e	-0.03163188
177	0x3e35c0f1	0.17749383
178	0xbd42fb10	-0.047602713
179	0x3f2d8c24	0.6779196
180	0xbf21f5a5	-0.6326545
181	0x3f3f7170	0.74782467
182	0x3e604b2e	0.21903679
183	0x3f2ec24c	0.68265224
184	0x3f2d83bd	0.6777914
185	0x3fa413b7	1.2818516
186	0x3e0ce8e5	0.13760717
187	0xbf2a9712	-0.66636765
188	0x3eb336cf	0.35002753
189	0x3f199c21	0.6000386
190	0x3e9e0d65	0.30869594
191	0xbda2a46e	-0.07941519
192	0xbde3a05f	-0.11114573
193	0xbec11cbf	-0.37717244
194	0xbf081c2c	-0.53167987
195	0x3cd5418e	0.026032235
196	0x3f07ffa9	0.5312448
197	0x3eb22563	0.3479415
198	0x3ed10d18	0.40830302
199	0xbf6148b3	-0.88001555
200	0xbf2f422c	-0.68460345
201	0xbe810ace	-0.25203556
202	0xbf0fedf9	-0.5622249
203	0xbe20eaf6	-0.1571463
204	0x3ba8abc2	0.0051474283
205	0x3e510cb1	0.20414998
206	0x3d988921	0.0744803
207	0xbd576eba	-0.05259583
208	0xbefc6e4c	-0.493029
209	0x3f759e7c	0.9594495
210	0xbf30a53a	-0.69002116
211	0xbec81ccb	-0.39084467
212	0xbe3323c9	-0.1749412
213	0x3f5288c2	0.82239926
214	0x3f184ea2	0.59494984
215	0xbc4bace8	-0.012431361
216	0x3d4f99e7	0.050683882
217	0x3e29099e	0.16507575
218	0xbdd459b8	-0.10368675
219	0x3ba716f5	0.0050991722
220	0x3eabf716	0.3358695
221	0xbe833d9d	-0.25632945
222	0xbf2743c0	-0.65337753
223	0x3f322772	0.6959144
224	0x3f59beb3	0.8505661
225	0x3e919995	0.28437486
226	0x3e9b55cf	0.30338904
227	0x3f262415	0.64898807
228	0x3f1b6784	0.6070483
229	0xbf027d74	-0.50972676
230	0x3d8734cd	0.06601868
231	0xbe22d226	-0.15900478
232	0xbe486bde	-0.19572398
233	0xbccbebb3	-0.024892664
234	0x3e8cddf6	0.27513093
235	0x3e7d134f	0.24714397
236	0x3e5ea2bc	0.21741766
237	0xbea20d52	-0.31650788
238	0xbed8943f	-0.42300603
239	0xbeaddb89	-0.33956555
240	0x3f27bf04	0.6552584
241	0xbe33cb1c	-0.17557949
242	0x3f40541a	0.7512833
243	0xbdcaa656	-0.09895007
244	0x3f2fa773	0.6861488
245	0x3e4821aa	0.19544092
246	0xbf294210	-0.6611643
247	0x3bb462ef	0.005504958
248	0xbf1dc1b6	-0.61623704
249	0x3e404241	0.18775274
250	0x3f4bbafc	0.7958219
251	0xbf5103ba	-0.8164631
252	0x3f021996	0.5082029
253	0xbf6450ce	-0.891858
254	0x3f562446	0.836491
255	0x3f2f2a2e	0.68423736

bias f4 [64]
0	0xbeed7d62	-0.46384722
1	0xbe76588b	-0.24057214
2	0x3e0fd595	0.14046319
3	0x3f57b726	0.8426384
4	0xbef82b5f	-0.4847059
5	0xbf095a30	-0.5365324
6	0x3dc80082	0.09765722
7	0x3f523d36	0.8212465
8	0xbf06f1cd	-0.5271271
9	0xbef405d4	-0.47660697
10	0x3ecac7a8	0.3960545
11	0xbf40ea09	-0.7535711
12	0xbf5ab78b	-0.85436314
13	0xbeddf06b	-0.43347487
14	0x3f34774e	0.70494545
15	0x3f1a955e	0.60384166
16	0x3f186c0a	0.59539855
17	0xbf24215b	-0.64113396
18	0xbf17f670	-0.5936041
19	0x3f02ca4f	0.5108995
20	0xbeda63b9	-0.42654207
21	0x3ed9b8d4	0.42523825
22	0x3e83a17a	0.25709134
23	0xbf041f6c	-0.51610446
24	0xbf0f43b9	-0.5596271
25	0x3e7c90b0	0.24664569
26	0xbecfb5ee	-0.4056849
27	0x3f010d88	0.5041127
28	0x3f1dfea1	0.6171666
29	0x3e576e08	0.21038067
30	0xbf3f45d0	-0.747159
31	0x3f2569b7	0.64614433
32	0x3eccba06	0.39985675
33	0xbda7fe8b	-0.08202847
34	0xbed582a0	-0.4170122
35	0x3f259195	0.64675266
36	0x3f3ba090	0.73291874
37	0x3f023a0d	0.5086983
38	0xbefa3c3b	-0.48874077
39	0x3f40fa9b	0.75382394
40	0x3ee1b28b	0.4408153
41	0x3f1c10be	0.60963047
42	0x3f14c620	0.58114815
43	0x3f2770ff	0.65406793
44	0x3e7e4fa9	0.24835075
45	0xbf06d8e7	-0.52674717
46	0xbf24c852	-0.64368165
47	0xbf62aafe	-0.88542163
48	0x3f2b06df	0.6680736
49	0xbf2ac373	-0.6670448
50	0x3f2f3d79	0.68453175
51	0xbdf5b6cc	-0.11997756
52	0xbed09209	-0.40736416
53	0xbf013b30	-0.5048094
54	0x3c536c1c	0.012904193
55	0xbf3ac22c	-0.7295253
56	0xbc6c5d27	-0.014426506
57	0x3f47f7d7	0.7811255
58	0xbefd1501	-0.49430087
59	0xbeebf45d	-0.46084872
60	0xbee5d1cf	-0.44886634
61	0x3ec1fadd	0.37886706
62	0x3ed87ec6	0.4228422
63	0xbec31c91	-0.38107732

weight f4 [1, 64]
0	0x3edb8b6b	0.42879805
1	0x3f4dc7e9	0.80383164
2	0xbebf91d7	-0.37415954
3	0x3edf5650	0.4362054
4	0x3f0932cf	0.5359315
5	0xbea9b99d	-0.33149424
6	0xbf596328	-0.84916925
7	0x3f187f45	0.595692
8	0xbef867f8	-0.48516822
9	0x3f066378	0.5249553
10	0x3f04eb51	0.51921564
11	0xbe7a7c93	-0.24461584
12	0xbf3c23d5	-0.73492175
13	0x3e6313dc	0.22175545
14	0x3ec89e57	0.39183304
15	0xbf79c5e0	-0.9756756
16	0xbf13955b	-0.57649773
17	0xbed4755b	-0.41495785
18	0xbf200251	-0.62503535
19	0xbfa77891	-1.3083669
20	0xbf252299	-0.64505917
21	0xbe2dbb20	-0.16965914
22	0xbed44c26	-0.41464347
23	0xbf5e2651	-0.86777216
24	0x3f18b83c	0.5965612
25	0xbf3c8ff6	-0.73657167
26	0xbecb3b5f	-0.39693734
27	0xbf46fd26	-0.77730024
28	0xbf2a54f2	-0.66535866
29	0xbee503b0	-0.44729376
30	0x3eb37311	0.35048726
31	0x3f46650a	0.77497923
32	0x3efa7138	0.48914504
33	0xbf435c18	-0.763124
34	0xbf21d9cd	-0.6322296
35	0x3da796f8	0.08183092
36	0x3e33ed24	0.1757093
37	0xbf0b4d70	-0.54415035
38	0x3f062b58	0.5240989
39	0xbe970161	-0.2949324
40	0xbf8a7c57	-1.0819196
41	0x3f4c094f	0.79701704
42	0xbf01b004	-0.50659204
43	0x3e94017c	0.28907382
44	0x3eccf92b	0.4003385
45	0x3ebcf34e	0.36904377
46	0xbef554d3	-0.47916278
47	0x3f1ed8fd	0.6204985
48	0xbe575071	-0.2102678
49	0x3f683f9b	0.90722054
50	0xbe615ae5	-0.2200733
51	0xbf4ed1a9	-0.80788666
52	0xbf84d711	-1.0378133
53	0xbefe7f3b	-0.49706444
54	0xbe4a9ef5	-0.197872
55	0x3f404bb2	0.751155
56	0xbf130d2f	-0.5744199
57	0x3eb7342a	0.35781986
58	0xbf5ab21f	-0.8542804
59	0xbf2efb0e	-0.6835183
60	0xbf2b2dda	-0.6686684
61	0x3f3f0eb8	0.74631834
62	0x3d9d9dca	0.076961115
63	0x3ef0ade7	0.47007677
